basic/ppo_ant_policy.pt (torch, 94370 bytes, 11 tensors)

actor.0.weight f4 [64, 105]
00000000: e77a a8bd 0170 a13d c634 0bbd fa00 913c
00000010: f6f0 0ebc 5a1f 09bd eb87 c73c d989 2ebd
00000020: 6251 c3bd 09e2 3a3d ca94 983c 0cf8 033e
00000030: b7f8 91bc f250 4d3d 028a 1fbe e6d3 ac3c
00000040: 891f 9fbd a140 87bd e434 7dbd 9f5b 34bc
00000050: 2c4b 90bc fb59 203d a54b 333c f26c ae3d
00000060: 33de 933b d473 dabd c1ac 8ebc 9ae6 2abb
00000070: 93d0 09bd a347 b23d 3c51 ffbc 7420 a3bc
00000080: f670 54bd 69cd 0e3b e0dc 5e3c a744 90bd
00000090: 08d8 98bd c3cf a53d b82f 0a3d 9902 21bd
000000a0: 7e67 cc3c 2db7 453d 5c72 afbd 84f7 4cba
000000b0: 46cd 77ba a21e 1ebe e364 213b cf76 85bc
000000c0: 8701 19be 2b8d 70bd de8a a7bc fca6 4f3c
000000d0: dafa e3bc 7c49 9b3d 83e9 18bd e1a1 8c3d
000000e0: 0758 b23d e3f9 10bc 92fa c73c a129 1e3d
000000f0: 4271 a63d 4e9f 9d3d d289 283d d334 dd3d
00000100: 286f 883d 6730 d5bd b05c b33d 051a ab3c
00000110: 01c6 9ebc 4ab0 c43d 7b62 c0bc 06d7 85bd
00000120: 6c05 7fbd 8b16 8f3d 421c 77bd c204 d73d
00000130: b5dd 6cbc a722 84bd 9f02 c03d 40ff a3bd
00000140: f20e e43c 9483 a53d 700a f53c 063a 123d
00000150: 24b6 abbc 0934 9b3c 96ea 30bb b401 703d
00000160: f609 8dbd b94c 873d 2010 4c3c 2c76 39bc
00000170: 86aa 333d b008 33bc d8d4 733c f798 05bd
00000180: 0a69 253d c9e9 55bd a9ba 473d 997c 02bd
00000190: 2b85 b6bb 0e90 4c3d bd08 90ba 79f8 1f3e
000001a0: 5465 423d b22f e9bb 4f70 4cbd b0d5 023e
000001b0: ca1f 153c 00e7 b33d 7c41 04bd bb02 bd3d
000001c0: b9f1 873c 8a6f ddbc 8307 eebd e322 0f3d
000001d0: 4fce 19bd b87e d2bd 2a7e 0f3e acec e2bd
000001e0: 09c1 36bd 8c3f 89bd f304 5b3b c90d 863d
000001f0: 91e3 8c3c 0237 b3bc 2438 9d3d 74e1 06bd
00000200: 21f0 7cbd 4b17 c73b dd00 f23c c159 3bbd
00000210: 84f4 03be a9ef 1f3d 3790 41bd 23d1 b13d
00000220: 161c 143c c6c7 dcbc 742b 833c 297e b43c
00000230: 83ce 683d b2e0 993d 5730 85bd df5c 07bd
00000240: 0807 d93d 90c4 913d 2c4b a3bb 321d 313d
00000250: f950 92bc 5dbf 08bd db57 a6bd 604f be3c
00000260: 28ea ed3c 1f12 0abe 3684 36bc 0cb7 a0bd
00000270: 5a0f ab3d 3628 7abd 2cdc 98bd 807e 95bd
00000280: bec3 963d 608a d23b 0c41 073c 67d3 7ebd
00000290: 2fa7 fd3d 1e8f 4bbc 1f68 c2bd a5fb c0bc
000002a0: de3a bc3d fa8d 093d 3ae7 3abc b8bd d8bd
000002b0: e912 a33d f0bf 2dbb f71c 863d 79a0 973d
000002c0: 4884 c2bd 9050 a4bc 6aca 483c 4fa2 c93c
000002d0: c5e6 d73c 7d1f b13d 22e1 473c dca5 143d
000002e0: 7ef5 c83d a2bb 933d 5468 a73d dcd8 633d
000002f0: ae2b 873d 092f 383d ed91 59bd fd3f 103d
00000300: 739c c83b 84dd 823d d9b2 3dbd 1291 613d
00000310: 1f1d b03d 41f3 6cbd 2420 34bb 2350 c03d
00000320: 571b 2b3d 60b0 213d 7819 66bd dc21 fa3c
00000330: 82e0 753c 6672 3dbd 34b0 833d 1d21 0e3d
00000340: 3174 8e3d eabd c73a 3301 8f3b 5687 bc3c
00000350: 09bf 733b 2020 3cbd 8178 e0bd abae ccbd
00000360: 8056 f23c 551b ddbc 6221 ec3c 0d3c 983d
00000370: 846f 883d e826 bfbd 352d 76bc 8948 2c3d
00000380: 915c b8bd 5764 42bd 1214 18bc 7167 493d
00000390: 974d 923d 1dcb b73d 0ab2 4abd 32d2 9d3d
000003a0: 38fc 8ebc 1f3e 84bc 3a53 07bc d83b 903d
000003b0: 3e7b 573d f870 6abd 26b6 81bd a6e7 383d
000003c0: 7b15 383d 91c4 a53d 9b2e 1bbd 8c51 8fba
000003d0: 0aa9 d1bc db66 673d a240 b1bd 01e9 6fbd
000003e0: 6e44 a83d 6bcb 103d 5aeb ca3d e3af d3bd
000003f0: ca58 22bc cc14 d03d 47bc 35bd 2e17 8d3c
-0.08226567 0.07882691 -0.033985876 0.017700661 -0.008724442 -0.033477165 0.024356803 -0.04261193
-0.09537007 0.04562572 0.018625636 0.12887591 -0.017818792 0.050126024 -0.1557999 0.021097135
-0.07769687 -0.06604124 -0.06181802 -0.011008172 -0.01761397 0.039148312 0.010943328 0.085168734
0.004512572 -0.10666624 -0.01741636 -0.002607739 -0.033646178 0.0870507 -0.031166665 -0.019912936
-0.05186554 0.0021789914 0.013602465 -0.070443444 -0.0746308 0.08096268 0.033736914 -0.039309118
0.024951693 0.048270393 -0.08566734 -0.0007818865 -0.00094528904 -0.15441373 0.0024626784 -0.016292004
-0.14941989 -0.05872838 -0.02045196 0.0126740895 -0.027829576 0.075823754 -0.03733207 0.068668135
0.08708196 -0.00884864 0.024411473 0.03861392 0.08127071 0.076964006 0.04114706 0.10801091
0.06661826 -0.10409623 0.08757913 0.02088643 -0.019381525 0.09603937 -0.02348446 -0.06535153
-0.06226103 0.069867216 -0.060329683 0.10498954 -0.014457156 -0.06451922 0.093755 -0.080076694
0.027839158 0.08081737 0.029912204 0.035699867 -0.020960875 0.01894571 -0.0026995293 0.058595374
-0.068866655 0.066064306 0.012455016 -0.011319678 0.043863796 -0.010927364 0.014882289 -0.03261658
0.040383376 -0.052224908 0.048761997 -0.031857107 -0.005570074 0.04994207 -0.0010988932 0.15622129
0.047459915 -0.0071162814 -0.049911793 0.12776828 0.009101817 0.08784294 -0.032289013 0.092290364
0.016594755 -0.027030725 -0.116225265 0.03494538 -0.037550267 -0.10278076 0.14012972 -0.11080298
-0.044617686 -0.06701574 0.0033419698 0.06545598 0.017198356 -0.021876816 0.076767236 -0.032929853
-0.061752442 0.006075775 0.029541427 -0.045739893 -0.12886244 0.039046917 -0.047256675 0.08682468
0.009039899 -0.026950728 0.016011931 0.022032814 0.05683757 0.0751356 -0.06503361 -0.033047553
0.10597044 0.071175694 -0.0049833264 0.043240733 -0.017860876 -0.033385623 -0.08122226 0.023231208
0.029042318 -0.13483475 -0.01113992 -0.078474134 0.083525375 -0.061073504 -0.074638695 -0.072995186
0.073615536 0.006425187 0.0082552545 -0.062213328 0.12385403 -0.0124242585 -0.09492516 -0.023557493
0.091909155 0.033582665 -0.011407668 -0.10583061 0.07962591 -0.0026512109 0.06548493 0.074036546
-0.09497887 -0.020057946 0.0122552905 0.024613528 0.026355157 0.08648584 0.012199672 0.03629099
0.09812449 0.072135225 0.08174196 0.055626735 0.06600128 0.04496673 -0.05311768 0.035217274
0.006122166 0.06389907 -0.04631314 0.05506999 0.085993044 -0.057849173 -0.0027484978 0.09390285
0.04177412 0.039474845 -0.056176633 0.030533724 0.01500714 -0.046251677 0.064300925 0.034699548
0.069557555 0.0015239094 0.0043641566 0.023013752 0.0037192723 -0.045929074 -0.10960484 -0.09994253
0.029582262 -0.026990572 0.028824512 0.07433329 0.06661895 -0.09333593 -0.015025427 0.042061362
-0.09002031 -0.047458973 -0.009282129 0.049170915 0.07143705 0.08974288 -0.049486198 0.07706107
-0.017454252 -0.016142903 -0.008259589 0.07042664 0.052607767 -0.05723664 -0.0633357 0.045142792
0.04494236 0.08094133 -0.037886243 -0.0010934337 -0.0255933 0.056494575 -0.08654906 -0.05857182
0.08216177 0.035350244 0.09908171 -0.10336282 -0.009908864 0.10160217 -0.04436901 0.017222967

actor.0.bias f4 [64]
00000000: f231 633d 8780 aabd 640a 543c 0c72 78bd
00000010: bf3d 0e3d 0171 b8ba 316f 893d 3014 7dbc
00000020: 4bf5 d33d f8dd afbd aacd 9a3d 1b59 b5bc
00000030: 7745 98bd a42b b8bd 04c3 3abd 01bc a73d
00000040: c70e 28bd c030 adbd 541c 393d 672d 823d
00000050: 237d 80bd a35b 503d be21 49bc 018c a8bd
00000060: 97a6 04bd ae34 873c 4fb0 493d f98f a8bc
00000070: c225 12bd e469 183d e0fa 993d 8e40 9d3d
00000080: 4f39 b6bd d6de 18bd 030b 353d 67ed 9e3d
00000090: 94f4 473d d588 77bd 1471 2f3d 2fed 5ebb
000000a0: 3569 ba3c 259a 473d d1f6 0e3d bfbd 79bd
000000b0: e43f a7bb 794a 31bd 314b 35bd ee51 44bd
000000c0: a471 adbd a0f9 a8bd 8de2 da3d a3bc 21bd
000000d0: bd38 6b3c 8db0 9cbd 967c 50bd 82b2 85bd
000000e0: eb51 e0bc f768 cc3d c9ac 48bd 7362 f03c
000000f0: 54e9 023c 5cd0 443d 34b4 773c 4cff a4bc
0.055467553 -0.08325296 0.01294193 -0.06065564 0.034726854 -0.0014071764 0.06710661 -0.015446708
0.1034952 -0.08587259 0.075587586 -0.022137215 -0.07435124 -0.08992699 -0.045596138 0.08190156
-0.041029718 -0.08456564 0.04519303 0.06356316 -0.06273868 0.05086864 -0.012276111 -0.082298286
-0.032385435 0.016504612 0.049240407 -0.020576464 -0.03568054 0.03721036 0.07518554 0.076783285
-0.088976495 -0.037321888 0.044199955 0.07760125 0.048817232 -0.060433228 0.04283245 -0.0034015884
0.022755245 0.048730988 0.03490335 -0.06097197 -0.005104052 -0.043283913 -0.04426116 -0.047929697
-0.08468941 -0.08250737 0.106877424 -0.03948654 0.014356789 -0.07650862 -0.050900064 -0.06528188
-0.027382812 0.09980958 -0.048992906 0.02934382 0.0079902 0.04805027 0.015118647 -0.020141266

actor.2.weight f4 [64, 64]
00000000: 4d5a c0bd 43d7 fbbc c9c6 a03d 07bb 843d
00000010: 994c d2bc 7c1d 2e3d ee19 a9bc 136c c8bd
00000020: aa50 11bd 293b fa3d ea5e 513d 2336 d8bc
00000030: 6795 0dbd 1b42 edbd 74fe d13d f6e5 dc3d
00000040: bf57 1a3d d2a7 f53d 3b84 ca3d eeb3 c93c
00000050: 8e27 9b3d 412a 51bd 4635 17bd ea62 e93d
00000060: 361a 263d 078d 8abd 82ad ee3d 811a 51bd
00000070: 4e41 93bd 2167 a8bc c5e3 73bd e3cb 04bc
00000080: d26d e0bd 915e 623d 7247 41bc 8e30 9b3d
00000090: 5d3b 99bd 4a74 9f3d 353e bbba ee30 12bd
000000a0: 9bb2 3ebd d1ed e0bd 3e4e 7cbb 8c71 4cbd
000000b0: 7f4c b23d ea27 053e 94a5 47bd 7df4 eebc
000000c0: 1d59 c6bd 6ab2 80bb fc2a 2e3d 923e 1c3d
000000d0: 16d7 91bd f627 913c b59d 893d 64d1 13be
000000e0: 324a 01bd 4cc0 553d 401a 32bd 9dd6 2c3c
000000f0: bce2 c33d 7eea 76bc 6f81 d53c 569d 073d
00000100: d751 b3bd 806d ca3d f662 483d 07bc 86bd
00000110: 1d91 c2bc 44b2 4bbd b8e0 883d f5c0 01be
00000120: 8d44 80bd 8eb1 fd3c 70ad d1bc 1142 ba3d
00000130: c713 4f3d 46ff 1dbd 6367 b43c baa1 033e
00000140: 99c4 a6bd 965c 58bd 3473 a0bd 3062 043e
00000150: fb7c 5d3d 557b 42bb 9ee6 2dba 8511 c1bd
00000160: fa51 05bd 46a8 b4bd aeac e03d 5072 ed3c
00000170: 1710 e43d 0d3c 883d 0b13 593d bbf7 d63d
00000180: 2884 b3b7 542c 35bd 6fd3 e1bd 2633 0cbd
00000190: 69d2 73bd c4bc d3bd c43b 28bb c0f7 f23c
000001a0: 9aa4 6cbc 2a84 843d 0e26 a53d 76d9 0ebd
000001b0: e451 3bbd 10f3 dd3c eac7 d03c 4ced d3bd
000001c0: b138 c13c e427 eebc eeb5 38bc a7f9 9bbd
000001d0: 4def 9a3d 84db d1bd 27e5 3f3c 8bba 84bd
000001e0: 8808 8fbd 163e be3d 0039 6abd 6fad d03d
000001f0: 0229 fd3d 372d c03c 8e75 5f3d e7bb ad3d
00000200: b673 32bd c6fa 1abe 95ca 043d a503 96bc
00000210: 8a3b f93d 35ef e1bd 555e 89bd 9856 92bd
00000220: 0b4a 06bd 682c c43d 0977 e8bd cfe0 06bc
00000230: 1683 cb3d 4391 8e3c 5fc4 ebbd 5548 c4bc
00000240: e617 4b3d 8d14 a2bc 8693 7f3d 7b2f d43d
00000250: 187f 103d e10a f13d a32a 2ebd cb32 1c3e
00000260: 0d5b a0bd 0ae1 f9bd 674e e83d 4ad3 49bd
00000270: 8062 83bd 8a7a aabc 8d8f 4bbd d12f b73d
00000280: f77f 9b3d 8226 e8bd 87e8 063b 0e5b 18bc
00000290: 9be5 463d 3e08 003e 2a5f 1d3d 9274 c9bc
000002a0: 7ba6 4cbd 9ec7 18bb f3b4 a9bd 3dca 79bc
000002b0: 6d6f 3f3c f40a a2bc 07b7 0f3d a8e4 96bb
000002c0: 0b51 82bc 35b0 b93d e2bf bdba bf3c e5bd
000002d0: 0c1c 2fbd ef49 d3bd 2410 15bd 4c16 e33d
000002e0: 30d4 a5bd cddf 0bbe 45c6 02be 40e9 d13c
000002f0: cec4 9dbd 85da a0bd 679b 2e3d f03f bc3d
00000300: 0a26 113e b144 89bd fe6a 893d beef 853d
00000310: 58a1 e93d 2e88 6abd 3532 5bbd 60b8 fabd
00000320: c605 1f3c 662d f8bd 6cc6 a0bd 16ff f6bd
00000330: 7d24 cebd cd25 09bd c80b c23d 127c d7bd
00000340: cd00 803d 6a77 a3bd 7b4d 78bd c940 8e3d
00000350: 99db ddbd 9db7 71bd 8fff 8fbd 541d f53d
00000360: a2bb af3d d96b 1bbd 46b3 dcbd edc5 8d3c
00000370: 6a02 a93c 4e65 aabc 591c 223d ea7a 24bc
00000380: d0a7 b63d d8f7 cebd 3ceb 0bbd 1882 23be
00000390: 41f3 993d e46d ce3d e51b 02bc 5095 e2bc
000003a0: 3810 2a3e 5448 03bd fad0 d0bc 534b bb3d
000003b0: 9f73 2abd bc64 2fbd 87ae 8abd 9158 383d
000003c0: fb16 ccbd 7dc3 433d 43ad 0b3e f9eb a3bd
000003d0: eeb5 1dbc d897 c03d 2751 fcbd 6008 a13d
000003e0: fa04 1a3d 7e0a b73d 10ce dd3d fcb3 3a3d
000003f0: 94da 7a3d fe52 c03c 1f69 97bc 7b46 efbd
-0.093922235 -0.030742293 0.07850415 0.06480985 -0.02567129 0.042508587 -0.020642247 -0.097862385
-0.035477318 0.12218315 0.051115908 -0.026393002 -0.03456631 -0.11584874 0.10253611 0.10786049
0.037681337 0.119949 0.09888502 0.02462193 0.07575904 -0.051065687 -0.03691604 0.113958195
0.04055234 -0.0676518 0.11654188 -0.051050667 -0.0719019 -0.020556988 -0.05954339 -0.008105251
-0.109584466 0.055265967 -0.011796819 0.075776204 -0.07482026 0.07785852 -0.0014285507 -0.035691194
-0.04655705 -0.1098286 -0.0038498784 -0.049912974 0.08705997 0.13003507 -0.048741892 -0.029169315
-0.09684966 -0.0039275186 0.04252146 0.03814561 -0.071211025 0.01771925 0.06719533 -0.14435345
-0.0315649 0.05218534 -0.043482065 0.010549215 0.095647305 -0.015070556 0.026062695 0.03310903
-0.08755844 0.09884167 0.0489225 -0.06578832 -0.023750836 -0.049730554 0.06683487 -0.12671264
-0.06263075 0.030968454 -0.025595397 0.090946324 0.05055597 -0.038573526 0.022021955 0.12854663
-0.08142967 -0.05282267 -0.07834473 0.1292808 0.05407427 -0.0029675562 -0.0006633791 -0.0942717
-0.032548882 -0.08821158 0.10970436 0.028985173 0.111358814 0.06652079 0.052996676 0.104964696
-2.1400003e-05 -0.044231728 -0.11026656 -0.034228466 -0.059526835 -0.103387386 -0.0025670389 0.029659152
-0.014443541 0.06470521 0.08063899 -0.034875356 -0.045732394 0.02709344 0.025485951 -0.10347995
0.023586603 -0.029071756 -0.011273844 -0.07615977 0.07565174 -0.102469474 0.011712349 -0.06480893
-0.06984049 0.09289186 -0.057183266 0.1018933 0.12361337 0.02345906 0.05455547 0.08483105
-0.04356738 -0.15134725 0.03241976 -0.018312285 0.12169559 -0.11031953 -0.067074455 -0.07145423
-0.032785457 0.09578782 -0.11350829 -0.0082323095 0.09937112 0.01740325 -0.11512064 -0.023960272
0.04958334 -0.01978519 0.06239655 0.10360619 0.035277456 0.11769653 -0.04252113 0.15253751
-0.078298666 -0.12201126 0.11343079 -0.049273767 -0.06415272 -0.020810384 -0.049697448 0.08944667
0.07592767 -0.1133547 0.0020585374 -0.009299053 0.048558813 0.12503144 0.038420834 -0.024591718
-0.049963456 -0.002331234 -0.082864664 -0.015245971 0.011684281 -0.019780613 0.035086658 -0.0046048947
-0.015907785 0.09066812 -0.0014476741 -0.11193227 -0.042751357 -0.10316836 -0.036392346 0.11088237
-0.08097112 -0.13659592 -0.12770946 0.025623918 -0.07703553 -0.07854179 0.042628672 0.091918826
0.14174667 -0.06702555 0.0670986 0.06539868 0.11407727 -0.057258777 -0.053514678 -0.12242198
0.009705966 -0.12118034 -0.07850346 -0.120603725 -0.10065553 -0.033483315 0.09474903 -0.105217114
0.06250153 -0.07981761 -0.060620766 0.069459505 -0.108329006 -0.059012998 -0.07031166 0.119684845
0.0858071 -0.03794465 -0.10776381 0.017306292 0.020631034 -0.020800259 0.039577816 -0.010039071
0.089187264 -0.10105866 -0.034159884 -0.15967596 0.075171 0.10079554 -0.007941221 -0.027659088
0.1660775 -0.0320514 -0.025490273 0.09145226 -0.04161417 -0.042820677 -0.0677157 0.04500634
-0.09965321 0.047793854 0.13640313 -0.080039926 -0.009625895 0.09403962 -0.12320166 0.078629255
0.037602402 0.08937548 0.10830319 0.045581803 0.06124361 0.023477074 -0.018482743 -0.11683365

actor.2.bias f4 [64]
00000000: 803f 29bd 7cbb a8bd 32f5 91bc 64b5 953d
00000010: 0fc7 373d 8aea 403c a09d f93d 7eaf 9b3d
00000020: 3b1e a3bd e0c0 d13d 20a3 5f3d 0e04 7ebd
00000030: e41c e93d ca10 90bd ed78 6bbc 05c3 f33d
00000040: 1a9c 893d b9df 1fbc 96ec abbd 7a3a 2dbd
00000050: 3616 97bd ec17 fc3d 0429 713d ea3d 2b3d
00000060: dc2c a7bd 160a 53bc 240a d33d 9bef af3d
00000070: aeca 8f3c 606b 533d 31e8 053b 8b7f 4abc
00000080: 019c 69bd 7c43 9bbd 5fa1 72bd 9f43 a33d
00000090: ce6c e0bc 9fd8 77bd 83db 61bd 3eed e3bd
000000a0: 67df febd 51d0 593c 9333 833c e867 efbd
000000b0: 8d4f 4d3d c9c7 5ebc 4b8e 05be e7f7 aa3d
000000c0: bbae 503d a549 773b 3968 3dbc 4c5c e5bd
000000d0: 4ab3 08be 504b bd3d 34af a53c 5988 303d
000000e0: 8b55 ebbd 0431 babc 9e26 883d 9cef e03d
000000f0: 2f63 d33b 9589 803c 5d32 833d 2169 0fbc
-0.041320324 -0.08238885 -0.017817114 0.07309988 0.04486757 0.0117746685 0.12188268 0.07601832
-0.079647504 0.10241866 0.054598927 -0.062015586 0.113824636 -0.07034452 -0.014372093 0.119024314
0.06719227 -0.0097579295 -0.083947346 -0.042292096 -0.07377283 0.1230925 0.058877006 0.041807093
-0.08162853 -0.012880823 0.103046685 0.08590623 0.0175527 0.051616073 0.0020432586 -0.01235951
-0.057033543 -0.07581231 -0.059235927 0.07971882 -0.027395632 -0.06050932 -0.055140983 -0.11129235
-0.12444954 0.013294295 0.016015803 -0.116897404 0.050124694 -0.013597437 -0.13042562 0.08348065
0.050947886 0.0037733105 -0.011560493 -0.11199245 -0.13349643 0.0924288 0.020225145 0.04309878
-0.114909254 -0.02272845 0.06647991 0.10983202 0.0064510326 0.015690604 0.064060904 -0.008753092

actor.4.weight f4 [8, 64]
00000000: e01c 26bd 3818 013e b0bd 0d3d ec6f d5bd
00000010: e70d 213c 3437 3abd fcb6 5c3d ae30 e0bc
00000020: 5565 d43d fcce 79bd b094 063d ae14 983d
00000030: e5ea f0bc bb97 b4bd 2496 793d 670b 633d
00000040: 1228 8d3d 3f5c 2bbd 911c 10bd 084e 6bbd
00000050: 339a ba3d 3a66 cebd e95f 6ebc 8185 c3bd
00000060: b2d8 ecba d56f 12bc 2f74 a6bd 2e34 96bd
00000070: 4177 0dbc fa2c f03d 8081 fa3d 0f33 973d
00000080: 2aa6 b13a e958 f73c 8090 b43d 965b d5bc
00000090: 409a cdbd ba71 d63d 6149 a7bc af73 5a3d
000000a0: 0e9e 93bc 6d31 62bd 6f08 04bd e429 ddbd
000000b0: d93d cbbd 0851 73bc e858 703d fa4d 183d
000000c0: ef7c 8fbd bd1d abbc b0e0 9bbd 5588 be3d
000000d0: 0d27 523c 9c35 c13d dad3 903d 9c5d ef39
000000e0: 184c c03d 8b4b ffbd 501c 313d 5fc2 e33c
000000f0: 4404 733d 7463 e53d b1ad 64bd bbfc 063d
00000100: 327a bcbd a785 703d c4a9 1a3d b60d 7d3d
00000110: 1a43 3abb ea15 523d 6daa cfbd 6e37 f4bd
00000120: b53c a1bc ef14 eabd 1fc5 053d e807 473d
00000130: ca61 bdbc 3670 23bd aa0d 3b3d 64db 45bd
00000140: ac96 d93c 7440 3d3d 7e4a e8bb 6148 d0bd
00000150: 4d2f 9c3d 88ac 713d 9134 00be a9f3 f33d
00000160: 69f0 43bd a9fd 253d b0ed ac3d 80cf f1bc
00000170: c6f8 303c 2ca1 9c3d e023 963d 553d 833d
00000180: d0ca 00bd 69fe dfbd a3b6 43bd 1f66 a73d
00000190: 62a8 68bd b4fc 973d 71c4 903d f5b6 f7bb
000001a0: 4b19 dfbd 9089 b83d 944a a2bd 0c23 7abd
000001b0: ff3e c03d dbdf 803d fdd7 02bd f8eb e93c
000001c0: 478e 223d 6ee7 d0bd e757 903d b4c7 88bd
000001d0: 5db3 863d 0d92 a4bd d30e 553d dfac a23d
000001e0: bed2 0abe 811d 1f3c d175 813d ee6b f5ba
000001f0: c1c5 a9bd 1b97 52bd 729b af3d 771c c4bd
00000200: de5b 9f3d 1b56 a2bd 29f6 113d 63ca d2bc
00000210: 45f3 053c d6b9 98bc d01b 77bb 950c c33c
00000220: 553f c9bb cc42 ad3d 445f c13c 2fc1 5a3c
00000230: 581a 8dbc 8a1e d6bb c4fd 29bd 0632 acbc
00000240: d13a ed3d 05c0 e7bd 5d8c 08bd bd1d 333d
00000250: 7c38 53bc 74db d03d 7f8d c2bd 5e0c 6f3d
00000260: 8bf3 cf3d 2611 5fbd 0e27 a03d c073 f83d
00000270: e65b f1bc 621b 03bc cf43 31bd 2052 86bd
00000280: 2032 acbc 1b22 9a3d 9d64 bfbb 8386 1ebc
00000290: 517a 5e3c 2f0b 423d 58b7 fdbd 7e77 56bd
000002a0: 6321 e4bc 60d2 92bc be3e cb3d 2b40 a0bc
000002b0: 5309 81bc 0e4a eabd 2b88 76bc f42d 843d
000002c0: f860 923d d97f 2ebd b785 7f3d a482 73bd
000002d0: 8ee8 bcbd 5353 f83d 69d0 343d c0dd 3ebc
000002e0: f13f adba 7938 1bbe 4fb2 ad3d bd1c 223d
000002f0: 86f3 70bd 667a 6bbd f1fe a3bd ae93 1a3d
00000300: 4973 933d 5a9b b23d ebfd b83d cf66 dd3d
00000310: a6ba 01bd 233d 55bd 9d21 2bbc 6c6c c4bd
00000320: aaa9 77bd 25f6 b63d 6abc ebbd 9e93 85bd
00000330: f24c 813d 5312 adbd 9495 643d ebac aebc
00000340: 687a 763d c8e4 983d b5d7 313d 0dee 4f3d
00000350: cc17 c13d 1039 493d e6c1 b53d 45bf 3abd
00000360: bfbf afbb 6118 3dbd 78de 6d3d ef3b f9bb
00000370: c645 883c e5a9 5bbc fcd5 95bc 4637 99bc
00000380: 7406 5f3d 6613 a2bd f7d2 dcbc 4269 c8bd
00000390: 5f03 203d 4d82 a5bd 1b52 a23d 6f33 cabd
000003a0: a3c4 30bd fb1b 1a3e f0a3 76bd 9f29 fabd
000003b0: 19a1 cebd a7c0 ac3d 47f6 7e3d 0b07 bcbc
000003c0: 7c24 b6bd 6e99 a5bc 4b46 3f3b fb5d c6bc
000003d0: 3244 f0bb 80c5 b0bd 4b54 f43c f1db 9fbc
000003e0: 427d be3d ad86 dbbd fce8 8ebc f35d 76bc
000003f0: cc8a 683b 54ef 113d 8a84 733c 8433 9abc
-0.04055488 0.12606895 0.03460473 -0.10421738 0.009829975 -0.045462802 0.053885445 -0.027366962
0.1037089 -0.06098841 0.032856643 0.07425819 -0.029408881 -0.08818003 0.0609342 0.055430796
0.068924084 -0.04183602 -0.035183493 -0.057447463 0.091114424 -0.10078092 -0.014549234 -0.09546948
-0.0018069951 -0.008937796 -0.08127629 -0.07334171 -0.008634389 0.117273286 0.122317314 0.073827855
0.0013553549 0.030193763 0.08816624 -0.026044648 -0.100391865 0.1047091 -0.020420732 0.05333298
-0.018019702 -0.055222917 -0.032234605 -0.10799006 -0.09923906 -0.014850862 0.058678538 0.03718374
-0.07006251 -0.020888204 -0.07611215 0.09303347 0.012826693 0.09434053 0.070716575 0.00045655377
0.09389514 -0.124655806 0.04323989 0.027802644 0.05933024 0.1120061 -0.055829708 0.032955866
-0.092029944 0.05872121 0.037759557 0.061780654 -0.0028421343 0.05129043 -0.10139928 -0.11924635
-0.019682268 -0.11429774 0.032658692 0.048591524 -0.023117919 -0.039901935 0.045667328 -0.04830493
0.026561104 0.046204045 -0.0070889583 -0.10170055 0.076262094 0.05900243 -0.12520052 0.11911709
-0.047836695 0.040525112 0.08443773 -0.029517889 0.0108015 0.076479286 0.07331061 0.064081825
-0.031443417 -0.10937197 -0.047781598 0.08173775 -0.056801207 0.07421246 0.07068718 -0.007559652
-0.10893496 0.09010613 -0.07924381 -0.06106858 0.093870156 0.06292697 -0.031944264 0.028554901
0.039686467 -0.10200392 0.07048016 -0.06678715 0.065771796 -0.080356695 0.05201609 0.07943129
-0.13556954 0.009711624 0.063213 -0.0018724182 -0.08289672 -0.051413637 0.08574571 -0.09575742
0.07781194 -0.079265796 0.035635147 -0.025731271 0.008175676 -0.018643301 -0.0037705787 0.02380971
-0.006141583 0.08460006 0.023604997 0.013351723 -0.017224476 -0.0065344023 -0.041501775 -0.021019947
0.11583484 -0.11315922 -0.033336986 0.043729533 -0.012891885 0.10198107 -0.094996445 0.058361404
0.10153874 -0.054459713 0.07819949 0.121314526 -0.029462766 -0.008002134 -0.043277558 -0.06558633
-0.021019995 0.07526036 -0.0058408515 -0.009675625 0.013578967 0.047373947 -0.12388486 -0.05236005
-0.027847951 -0.01792258 0.099240765 -0.019561848 -0.015751516 -0.11439906 -0.015047113 0.06454077
0.071474016 -0.042602394 0.06238338 -0.05945076 -0.09224044 0.12125268 0.044144068 -0.011649549
-0.0013217909 -0.15158261 0.08481275 0.03957819 -0.058825992 -0.057489775 -0.080076106 0.037738495
0.07199723 0.08721037 0.09032806 0.10810625 -0.031672142 -0.052060258 -0.010445026 -0.09590992
-0.06046454 0.08933667 -0.115105465 -0.06522296 0.06313504 -0.08450761 0.05580671 -0.021322688
0.06017533 0.074655116 0.043418605 0.050764132 0.09428367 0.049126685 0.08874874 -0.045592565
-0.005363434 -0.046165828 0.05807349 -0.0076060216 0.016634833 -0.013407205 -0.018290512 -0.018703114
0.054449514 -0.07913856 -0.026956065 -0.09785701 0.039065715 -0.080814935 0.079258166 -0.098730914
-0.043156277 0.15049736 -0.060214937 -0.1221497 -0.10089321 0.08435183 0.062246587 -0.022952577
-0.088936776 -0.020214763 0.0029186185 -0.024214735 -0.0073323483 -0.0863142 0.02982535 -0.019514056
0.09301235 -0.10719047 -0.01744508 -0.015037048 0.003548312 0.03562863 0.014863143 -0.018823393

actor.4.bias f4 [8]
00000000: 6870 bcbb 344f aebd 0e22 0b3c b68f 2dbd
00000010: 5fc7 aabd 4355 aabd 1a85 1f3d ba9d bbbc
-0.0057507046 -0.085112005 0.008492006 -0.04237338 -0.08338808 -0.08317044 0.038945295 -0.022902358

critic.0.weight f4 [64, 105]
00000000: 7843 1fbe 2eb3 803d 4e9c 573a d8eb fb3d
00000010: 1fdd e0bc 95aa babd 2cb2 47be c36a 3e3e
00000020: 63e6 b63d 4ad7 e93d 48b6 2b3e 0bb5 2f3e
00000030: 3148 78be e9d0 1cbe de8a a33c bc29 84bb
00000040: e39c 9f3c 5cae bdbc 4728 86bd 8dcc 18bc
00000050: 1770 a83c 8676 94bc bd92 0abb e76f efbb
00000060: d58e 693c 7455 843c 064e 2639 34a3 4b3d
00000070: 113e a9b9 8e80 673d 026b fbbc 9395 92bd
00000080: 3bf1 8bbe 34f6 ae3c e9cb 87bd 780f 8b3c
00000090: 42db 583d 1269 613d de3a e4bc 057e 3bbd
000000a0: e404 43bc 13a9 8f3d bd3a a0bd 445c 233e
000000b0: b2da 0c3d 9eba 403d f27d 4cbc 8f4a 1e3d
000000c0: 3255 cb3c e8b2 173a d27f 58be 4b6e 4abd
000000d0: f9e5 3d3d b7c4 bd3d d8ca 663d 9191 2fbc
000000e0: 5e9a 45bb 83c3 0ebe 3d14 f33d e2bd de3d
000000f0: f9a3 f9bd ead0 a13d a474 b5bd f91a 893d
00000100: 2054 113d c3a8 9dbc 9cd8 9fbc b032 83bd
00000110: 8435 7fbe df3c adbd f52f 99bd c7d5 463b
00000120: 96bd e2bc c31e 923d 7a3b 5bbc 8cfb d53d
00000130: 4d07 afbc ddae 12bd 0252 9cbd 8d68 093d
00000140: e080 14be a63d 00bc 99ff 31be 24db 243d
00000150: 84b9 02bc ea0a fa3c ebf7 3dbe 1872 b4bd
00000160: d7d8 fbbb 4598 bebc 77a6 a1bd d7e2 84bd
00000170: ac04 c0bc edda 19bd 694f 30be edfc fdbd
00000180: 639e 4c3c a80f 09bc 2efc 15be 039a e6bd
00000190: 4db4 243e 329f 2b3d d65c 63bc d7cc 31bb
000001a0: 7f97 2abe f2b7 083e 9ea4 5a3f dd5e 253e
000001b0: 5148 9ebe d434 853b 5c1c 713d 7122 bebd
000001c0: 41e0 883d 2af7 1f3e af37 ae3c 925f e93c
000001d0: 946a dc3c d566 35be f654 753e a8af 3a3d
000001e0: a44f bd3c 002d 7ab9 71c3 16bd 73c9 a6bc
000001f0: 1649 d6bb eaf2 4f3c 9cca 32bc e29c 4ebc
00000200: 7a1f 82bc 3326 9fbc cef0 8c3c 76ee 2ebc
00000210: 9cec c0bc 1366 05bd 2cc7 18be 2b1a 7c3b
00000220: 468b 98bc 8987 fbbe ae6a 3c3d 9067 aabd
00000230: a173 96bd 08ba 13bd 6fdc 45bc da8e 82bd
00000240: 8b6a 40bb 52b3 863e cf78 a93d fa7d b63c
00000250: 331b 5c3d 3384 5dbe 8023 923d a8cd 4f3b
00000260: aef0 8d3d cac4 413c c58c bdbc 3401 8f3d
00000270: b117 c33d 9a6c 603c 863a a1bd 3155 b23b
00000280: 5237 d0bc c3a3 0d3d 9a33 a5bd 3ab2 e43d
00000290: c8d1 b7bd 60de 8f3d f2ad 94bd 20ea edbe
000002a0: 5a26 793d 5df0 2d3e b0c9 3cbd a2f5 b03d
000002b0: d291 c83b 5418 e7b8 1d78 b13d 7b88 183d
000002c0: 0a48 73bd ab76 0bbd 0223 74bd 94b8 9fbc
000002d0: de6c 143d c828 b03c 1e0c e33d cff7 a3bb
000002e0: a88a 013d c9f2 02bf 93f4 813c d9de b03d
000002f0: 69a2 cdbb 08b8 023d 3926 053d 6734 323d
00000300: 440c 803c 50a9 8d3d c114 9ebd 5f7e c93c
00000310: 17bc 4cbd ebed 8d3d 2078 b93d 9e51 35bc
00000320: f64a c33c f2f9 b33c 007b 8e3d cf36 a1be
00000330: bf55 e9bd cb43 1dbd 58f5 79bd fdcd 273c
00000340: 0f3b b53c 3ef5 d73d 4a84 833e 6f60 3a3e
00000350: a9f8 783d 21ac 26bd 78a5 adbc b6f7 66bc
00000360: 5659 b63e 964a 1dbe f755 c9be 3e11 8bbd
00000370: b8f0 7ebe 58a9 84be 8468 8f3e bd6f 433e
00000380: d8c9 a0bc 9481 47ba 45d4 56bc ed10 46bd
00000390: aa83 65bc 4185 91bb d4d5 a93c dbde 06bc
000003a0: f52e 443d 9013 023d 1d20 debc e3ec 9c3b
000003b0: c8d5 03bc d5aa bb3c e74f 95bc 58c6 38bd
000003c0: a8bf b43c 3f7b 0bbd f9bc 633e 9a3f dcbb
000003d0: 2c5b 90bd d91e 8a3d 7c50 82bd 015a ed3c
000003e0: bcdc 4c3d d8ce 143e 5e14 f13d 83ce e53d
000003f0: b18e 033e 9e4f 12be 6bf7 1fbc abf8 d33c
-0.15553081 0.06284176 0.00082248903 0.12300843 -0.027449189 -0.09114567 -0.19501561 0.18595414
0.089306615 0.11418016 0.16768754 0.17158906 -0.24246289 -0.15314068 0.019963678 -0.0040332954
0.01948399 -0.02315443 -0.06550651 -0.009326112 0.020561261 -0.018122923 -0.0021144592 -0.007307041
0.014255245 0.016154028 0.0001586006 0.04971619 -0.00032280435 0.056519084 -0.030690674 -0.07157435
-0.27332482 0.021357633 -0.0663069 0.01697515 0.052943476 0.055031843 -0.027860101 -0.04577448
-0.0119030215 0.0701467 -0.078237034 0.15953165 0.03438825 0.047052972 -0.0124812 0.038645323
0.024820898 0.0005786852 -0.2114251 -0.04942159 0.046361897 0.09266036 0.05634579 -0.010715858
-0.0030151824 -0.1394177 0.118690945 0.10876061 -0.121894784 0.07901175 -0.08860138 0.06694598
0.03548062 -0.01924551 -0.019512467 -0.06406152 -0.24922758 -0.08458876 -0.0747985 0.0030339824
-0.027678292 0.071347736 -0.01338088 0.104483694 -0.021365786 -0.035811294 -0.07632829 0.033546973
-0.14502287 -0.007827198 -0.17382659 0.04024805 -0.007978801 0.030522782 -0.18551604 -0.08810824
-0.0076857614 -0.023265967 -0.07893079 -0.06488579 -0.023439728 -0.0375623 -0.17217793 -0.124017574
0.012488934 -0.008365549 -0.1464698 -0.11259844 0.16084404 0.041899867 -0.013877114 -0.002713015
-0.16659354 0.1335142 0.85407436 0.16149469 -0.30914548 0.0040651355 0.058864936 -0.09283913
0.06683398 0.1562163 0.021266786 0.028487954 0.02690629 -0.17715009 0.23958191 0.045577675
0.023109265 -0.00023858622 -0.03680748 -0.02035973 -0.0065394742 0.012692193 -0.010912564 -0.012610646
-0.01588415 -0.019427394 0.017204668 -0.010676971 -0.023550324 -0.03256805 -0.14919728 0.0038467746
-0.018621098 -0.49126843 0.046000175 -0.08320534 -0.07346273 -0.036066085 -0.012076481 -0.06374903
-0.002936038 0.26308686 0.082749955 0.022276867 0.053736877 -0.21632461 0.07135677 0.0031708274
0.06930672 0.011826703 -0.023138413 0.06982651 0.09526003 0.013697768 -0.078724906 0.0054422845
-0.025417004 0.034580003 -0.08066483 0.111668065 -0.089755595 0.070248365 -0.0725974 -0.46467686
0.06082759 0.16986223 -0.04609078 0.08640601 0.0061208988 -0.0001101947 0.08665488 0.037239533
-0.059394874 -0.034048717 -0.0596037 -0.019497193 0.036236636 0.021503821 0.110862955 -0.0050039063
0.031626374 -0.5115171 0.015863692 0.08636255 -0.0062754643 0.031913787 0.032507155 0.043507006
0.015630849 0.069170594 -0.07718802 0.024596391 -0.049984064 0.06930145 0.09056115 -0.011066822
0.023839455 0.02196977 0.06957054 -0.31487128 -0.11393308 -0.03839473 -0.061024994 0.0102419825
0.022122888 0.10544823 0.25686866 0.18200849 0.060784016 -0.0406915 -0.021197066 -0.014097145
0.35615033 -0.15360484 -0.39323398 -0.06790398 -0.24896514 -0.2591045 0.28009427 0.19085594
-0.019627497 -0.0007610556 -0.013112132 -0.048355985 -0.014008442 -0.004440934 0.020731844 -0.008231844
0.047896344 0.031756938 -0.027114922 0.0047889813 -0.008046575 0.022908607 -0.018226577 -0.04511103
0.022064045 -0.034053084 0.22240056 -0.006721449 -0.0704864 0.06744165 -0.063630074 0.028973581
0.050015196 0.1453203 0.11771463 0.112210296 0.12847401 -0.14288184 -0.009763579 0.02587541

critic.0.bias f4 [64]
00000000: 6727 00be 9aa3 11be 3715 d13e cb2e 683e
00000010: 2447 5d3e 85e1 5fbe bb2c 58be 90b5 173e
00000020: 4b9c 00be 55ba acbd 2933 54be 0970 9dbe
00000030: 1045 353e 5294 59bd 04ec b23e a234 1d3e
00000040: c006 173e cbc6 65be 740d 89be b195 4bbe
00000050: a346 683e c494 7fbe 8cfb 62be 5d52 f03d
00000060: 7586 bfbd 8416 0bbe 6009 87be 5899 66be
00000070: 87fb 51be 6f95 353e e1fc 4d3c 3cd7 4f3e
00000080: 9287 14bd e6e6 2a3e 3019 88be e313 353d
00000090: 03ac 02bd 69d9 84be 9d08 293e 297b 73bb
000000a0: 8edd 89bd d0eb 08bd c847 2ebe c824 9dbe
000000b0: cfbf 4a3e 998b 7a3e 6476 84be c20d 983e
000000c0: f4a7 c2bd d11d 9abd 72b5 3dbe e333 e03d
000000d0: 2887 933d ab56 493e 13e5 f13c 5b3c dabd
000000e0: 1b99 243e d47c 3d3e 7698 813e d474 313e
000000f0: 3610 953e d1d5 80be bb10 503e 7b79 323e
-0.12515031 -0.14222565 0.40836498 0.226741 0.21609169 -0.21863373 -0.21110813 0.14815354
-0.12559621 -0.084339775 -0.20722641 -0.3074954 0.17702127 -0.053119965 0.3494569 0.15352109
0.14748669 -0.22439115 -0.26768076 -0.19881321 0.22683196 -0.24959093 -0.2216627 0.117344595
-0.093518175 -0.13582808 -0.2637434 -0.22519433 -0.20506106 0.17732786 0.012572498 0.20296949
-0.036262102 0.16689643 -0.26581717 0.04420842 -0.031902324 -0.2594712 0.16507192 -0.0037152267
-0.06731711 -0.033428013 -0.1701957 -0.30692124 0.19799732 0.24467315 -0.25871575 0.29697996
-0.09504691 -0.07525218 -0.18526247 0.109473966 0.072035134 0.19661967 0.029528176 -0.10656043
0.1607403 0.1850465 0.2531163 0.17329723 0.2911393 -0.2516313 0.20318882 0.17429154

critic.2.weight f4 [64, 64]
00000000: 4be1 1e3e 0522 d7bc 2d1d 3bbe 4b1d 48bd
00000010: 2130 e0bd db69 3c3e 68a8 a83b e091 0a3e
00000020: 9a77 28be 1ae4 42be efc6 093d 99f5 fa3d
00000030: f9cb 1c3d 0c29 4cba cde7 89bc 9647 09be
00000040: 38fe ffbd adc7 623e e53c a93d c815 c4bb
00000050: bb36 69be 086c e63d df23 b63d ce7c f43c
00000060: 5adf 013e 4266 f53d cef4 463c 6149 01bd
00000070: 6443 3a3e f539 67bd 2fc3 8d3d 6b13 4cbc
00000080: 0372 87bd 9f60 15be 2815 893d c064 973d
00000090: a3fb 173e efe0 003e 6a8d 1c3b 650e 2dbd
000000a0: 58e3 bbbd 3227 54bd 7a18 003a ea0f 4d3e
000000b0: 9790 32be a1a6 22be a00e 393b eec0 38be
000000c0: 0459 59bd 1dec 393e f7fa c23d d8a3 313c
000000d0: 9b73 04be 8e16 f4bc 4bb3 663e 9993 983d
000000e0: 0a73 febd d8b6 a3bd ce7a ffbc 8f96 f4bd
000000f0: 2078 c4bd 3d41 2f3e c497 6cbe 76e5 2dbe
00000100: d584 20be 88c4 59bc 11d7 e13d 51a1 f3bc
00000110: 1751 653e 3834 26be dc10 09be bc00 90bd
00000120: f11c f63c 6d9f 003d b3fe 4dbe a20c c4bd
00000130: e1bb 183d 8e66 5a3e 277d 853d c73f 0d3d
00000140: d360 303e a868 023d 9393 c8bd c253 29be
00000150: 298d 703e d991 d5bc 800a b1bc a636 dfbd
00000160: 231d cfbd f8a6 52be 9140 31be 611e de3c
00000170: 6fdc 33be 3eda 4e3e f0af f4bd 73fb 81bd
00000180: bbc5 58bd dcf4 573e 67da 56be 8ceb c6bc
00000190: ab6c 4cbe b994 15bc d415 053e 53a4 023d
000001a0: 13fb c63c 75f1 7a3e 5e22 dabd 4de7 13be
000001b0: c743 423e 9a68 143e 060b 00bd ab6e d13c
000001c0: db38 fd3d 9b5b 1dbd b4d2 1bbe cfd3 d3bd
000001d0: 968d d83d 5ced cc3c d1d8 20be f6f5 a8bc
000001e0: 151a 703d 78a3 3d3c ed29 9f3d 5b9a ba3d
000001f0: e8e8 233e 3362 4e3c ed82 013d 266e 783c
00000200: c5b2 723d 9a93 23be e6d4 acbe b7f2 ae3c
00000210: 5bd5 4dbc 658b 5cba e3f1 273e b543 473e
00000220: 4037 18be ad71 083d 040e 603e ddd4 6f3e
00000230: 6f5e 31be c50b 0f3d 1079 5abd 6b6f 8abc
00000240: a107 2fbd 4df5 193e 7593 7d3c cbe1 ad3d
00000250: a69f 17be 585f 4f3e 6820 373e 0c23 923d
00000260: 828e 9c3d f2ea 4c3e f97e 543e d5f8 a5bb
00000270: 3fee c23d 9ffd 48be 4258 ad3d f474 34be
00000280: 70e5 533e 822b 03be dec1 853e 3b49 083e
00000290: c5a9 e73d acaf 733d 1e93 44be ba1f ce3d
000002a0: 831f 6ebd 7e99 51bd 453d 073e 413b 7c3d
000002b0: 0c98 60be 748a bcbd 5716 543d 5ecc 22bd
000002c0: 4549 1dbe 105c db3d d7b0 263e c16f 83bd
000002d0: 4659 e1bd 3a5f 063e beb0 953d 3375 483e
000002e0: 348a 1fbe 41b0 57bd 2102 02be 57c7 2dbe
000002f0: c5b9 65be 737e 743d 17a1 2c3b aa9a 37be
00000300: ae85 b6bd 87b7 253e dacd e53d 0ce4 113e
00000310: 0d59 603e 5d46 5fbd 9e6e 6ebd f65c 41bd
00000320: 7a95 b03d 5954 81bc d365 12be adc5 0fbe
00000330: e46a 303e a3a8 1a3e 4b1a 773e 8968 adbb
00000340: 483f 333e 5b20 94bd a34b babd 0517 843b
00000350: f758 0b3c e570 90bd decb 81bc a6b9 38be
00000360: d16d 943c 23cf 43bd d826 70bd 35c6 033e
00000370: 31f5 4ebd 2abe 583d 2292 18be 7321 693d
00000380: 41e4 5fbc cdf8 2d3e fba2 67be 75e3 13be
00000390: b632 16be 75bd 08be 5fd7 a43d 8c40 143d
000003a0: ab3b 893d e989 7d3d 01b1 5dbd e736 fdbd
000003b0: 3c9c b53d 596b 153e bf92 fdbd ee70 913d
000003c0: 56ae 9b3d 7cd9 3bbc 169d 3bbc 3be5 413d
000003d0: ef4a 983c a7e1 84bd 5208 1bbe 3bf7 f5bd
000003e0: a5bb 013e 8eb4 893c e32b 1e3e 6724 e93d
000003f0: e4cd c03d 5aa2 d4bd 45fa 1a3e 9491 4c3e
0.1551563 -0.026261339 -0.18272848 -0.04885606 -0.1094668 0.18399756 0.0051470287 0.1353221
-0.16451874 -0.19032326 0.033636983 0.12253875 0.03828046 -0.0007788099 -0.016834164 -0.13406214
-0.1249966 0.22146483 0.08263568 -0.005984042 -0.22774784 0.11251074 0.088935606 0.029844668
0.12682858 0.11982395 0.012143327 -0.03156412 0.1818977 -0.056451757 0.06921994 -0.0124558015
-0.06613543 -0.1458764 0.06693488 0.073922634 0.14842086 0.12585805 0.0023888 -0.042250056
-0.09174222 -0.051795192 0.000488646 0.20025602 -0.17437969 -0.15883876 0.0028237477 -0.18042347
-0.053063408 0.18156476 0.09520524 0.010842286 -0.12934725 -0.029795911 0.22529332 0.07450027
-0.12424286 -0.07993859 -0.031186488 -0.11942779 -0.095932245 0.1711473 -0.23104769 -0.16982064
-0.15675671 -0.013291486 0.11027349 -0.029740008 0.22394215 -0.16230857 -0.13385338 -0.0703139
0.030043097 0.03140204 -0.20116691 -0.09572722 0.03728855 0.21328184 0.065180115 0.03448465
0.17224436 0.03183809 -0.097937725 -0.16535857 0.23491348 -0.026070522 -0.021611452 -0.10899095
-0.10112979 -0.20571506 -0.17309786 0.027114095 -0.17564557 0.2020044 -0.1194762 -0.06346788
-0.052922945 0.210895 -0.20981751 -0.02428224 -0.19963329 -0.0091296965 0.12996608 0.031894993
0.024289643 0.24506171 -0.10651086 -0.14443703 0.18971168 0.14493027 -0.031260513 0.025565466
0.1236436 -0.03841744 -0.15217096 -0.10343134 0.105738804 0.025015526 -0.15707709 -0.020625096
0.058618624 0.0115746185 0.077716686 0.09111472 0.16006815 0.012596655 0.031619 0.01516298
0.05925252 -0.15974274 -0.3375618 0.02135597 -0.012563075 -0.00084131054 0.16400866 0.19459422
-0.14864826 0.033311535 0.21880347 0.23421045 -0.1732118 0.034923334 -0.05333811 -0.016898831
-0.042731885 0.15034981 0.015477051 0.08490332 -0.14806995 0.20251215 0.17883456 0.07135591
0.07644369 0.200115 0.20751561 -0.0050650635 0.09518098 -0.19627999 0.084640995 -0.17622739
0.20692992 -0.12809566 0.2612447 0.13309185 0.11311678 0.059493706 -0.19196746 0.10064645
-0.05813552 -0.051171772 0.13206966 0.061579946 -0.21933001 -0.09206095 0.051779117 -0.03974568
-0.15359981 0.10710919 0.16278397 -0.064178 -0.11003356 0.13122264 0.073091015 0.19575958
-0.15580064 -0.052658323 -0.12696125 -0.16970573 -0.22434147 0.059690904 0.0026341134 -0.17930093
-0.08912216 0.16183291 0.11220904 0.14247149 0.2190897 -0.054510463 -0.05821096 -0.047207795
0.086222604 -0.01578729 -0.14296655 -0.14040251 0.17228276 0.15103392 0.24131124 -0.0052920026
0.17504609 -0.07232734 -0.09096458 0.0040310645 0.008505098 -0.07052783 -0.015844282 -0.1803957
0.01811877 -0.047804963 -0.058630794 0.12868579 -0.0505268 0.05291573 -0.14899495 0.056916665
-0.01366526 0.16989441 -0.22620766 -0.14442237 -0.14667782 -0.13353522 0.08048891 0.03619437
0.06700834 0.0618991 -0.054123882 -0.123639874 0.0886769 0.14591731 -0.12381505 0.07101618
0.07601611 -0.011465427 -0.011451026 0.04733775 0.018590419 -0.06488352 -0.15139893 -0.12010046
0.12669237 0.016809728 0.15446429 0.11383896 0.094142705 -0.103825286 0.15134533 0.19977409

critic.2.bias f4 [64]
00000000: 4beb c2bd b90b f63c 95cc d4bc 9bd8 3a3e
00000010: e67f 063d 7a82 39be ab7e b2bd 0b7f 9c3d
00000020: d9fe e03d 371c c1bd 7413 5cbd a1f2 fd3d
00000030: d353 17bd b769 933b 06bb a3bb 5905 253e
00000040: 28d4 173e 9e0b 58bc 08e0 623e d672 45bd
00000050: 048c 89bc 1e80 2d3e 2950 6cbe bbfc 283e
00000060: 3ac9 3ebe 9ce8 1c3e 396c 30be 9e39 75be
00000070: 2901 e3bd d779 acbc 07e4 4fbe 2999 2e3d
00000080: 57a2 ba3d a589 b3bd d315 0fbe bb56 923d
00000090: 8002 5cbe d79a 8d3e 0e5c 12be 83ec 01be
000000a0: dea5 d73d c686 153e 8ef6 473e af0e 8fbe
000000b0: a1bb bebd 8467 c63c 672f afbd ba55 b5bd
000000c0: 68c0 e5bd e46c 5fbd ca94 58be 9b65 38bc
000000d0: 81cb 073e 5168 59be 58aa 86bb bcdf 61be
000000e0: c151 75bd d0a4 e83d 7566 d7bd e7c8 1f3e
000000f0: 2aeb 4d3e 531e 003e 7400 34be c800 d43d
-0.09517535 0.030034887 -0.025976459 0.18246691 0.032836817 -0.18116179 -0.08715566 0.07641419
0.10986108 -0.0942921 -0.05372949 0.123997934 -0.036945175 0.004498686 -0.00499666 0.16115321
0.14827025 -0.0131863635 0.22155774 -0.04820522 -0.016790397 0.16943404 -0.23077454 0.16502659
-0.1863145 0.15323108 -0.17228784 -0.2394776 -0.11084206 -0.021054192 -0.2030183 0.042626534
0.09112995 -0.08766488 -0.13973169 0.07145449 -0.21485329 0.27657196 -0.14292929 -0.12687878
0.105296835 0.14602193 0.19527647 -0.2794089 -0.09313131 0.024219282 -0.08553963 -0.08854242
-0.11218339 -0.054547206 -0.21150509 -0.011254693 0.13261224 -0.212312 -0.004109662 -0.22058004
-0.05989242 0.113595605 -0.10517589 0.15603982 0.20109239 0.12511568 -0.17578298 0.103517115

critic.4.weight f4 [1, 64]
00000000: a241 dfbf 8bf1 de3f e754 e0bf 33a7 e23f
00000010: 9afe d53f 9c6a d6bf 118a d7bf 7d88 e33f
00000020: df9b dc3f af60 dabf f680 dfbf 6ad2 df3f
00000030: aa1d debf 3e92 e1bf 8593 debf 877d dc3f
00000040: 3886 e43f cff4 e0bf cb38 d73f e2ea dfbf
00000050: 940a e63f a497 d43f 12d9 d4bf f947 dc3f
00000060: 86fd dbbf 6fae d83f f9ff d4bf 29f5 dbbf
00000070: 4e18 d8bf 8b3b e03f 8925 dfbf 0cc1 d63f
00000080: 41fc d73f 77a0 e63f 6a30 d4bf e549 e13f
00000090: 2ae5 d7bf 75a1 d63f 7313 d6bf 382c dabf
000000a0: f500 da3f 86c1 d63f 5f65 da3f 4de3 e13f
000000b0: 5d2c e4bf fc57 e33f a6f0 e43f 881f dcbf
000000c0: 0871 d4bf 70bc d5bf a902 d5bf 9a7e dbbf
000000d0: 4c0a d73f 34f4 dabf 7bae e0bf 7db5 e0bf
000000e0: 7327 d8bf 4a47 e33f a27b d5bf 4176 d53f
000000f0: 6d37 e33f 67f4 e33f f006 dbbf 515a e53f
-1.7441905 1.7417463 -1.752591 1.7707275 1.6718323 -1.6751285 -1.683901 1.7776028
1.7235068 -1.7060755 -1.7461231 1.7486088 -1.7352803 -1.7622755 -1.7388769 1.7225808
1.785346 -1.757471 1.6814207 -1.7493556 1.7971978 1.6608777 -1.6628745 1.7209464
-1.7186744 1.6928233 -1.6640617 -1.7184192 -1.6882417 1.7518171 -1.743333 1.6777663
1.6873857 1.801772 -1.6577275 1.7600676 -1.686681 1.6768023 -1.6724685 -1.7044744
1.7031542 1.6777809 1.7062186 1.7647492 -1.7826039 1.7761226 1.788594 -1.7197123
-1.6596994 -1.6698132 -1.6641437 -1.7148011 1.6800017 -1.7105775 -1.7553247 -1.7555386
-1.6887039 1.7756131 -1.6678355 1.6676713 1.775129 1.7808961 -1.7111492 1.7918187
