basic/ppo_ant_push_policy.pt (torch, 106226 bytes, 11 tensors)

actor.0.weight f4 [64, 128]
000000 86 71 9f 3d 1a a1 46 3d 6b 1e 40 bd 14 73 c7 bc
       0.07785325 0.048493482 -0.04690401 -0.024346866
000010 f8 e5 96 3b ac 92 4b 3d 66 56 89 3c 07 6f 5e bd
       0.004605051 0.049700424 0.01676483 -0.054305103
000020 8a fb d4 3c 9d b8 81 3c 87 49 8a 3d a9 7c 94 3d
       0.02599885 0.0158351 0.067523055 0.072503395
000030 59 ca 22 bd d0 dc 6b bd 5a 52 a9 bd 87 00 ad 3d
       -0.039743755 -0.05758363 -0.082676604 0.08447366
000040 be a6 25 bd 24 e7 22 bc b6 f1 eb 3b 68 dd 29 bd
       -0.04044222 -0.0099428035 0.007200445 -0.041470915
000050 7d c4 67 bd 5c a8 39 bd d0 bb 47 3c 67 b6 ad 3d
       -0.05658387 -0.045326576 0.012190774 0.08482056
000060 d5 0d 1a bd 2e 44 2d 3d 5a 67 55 bd ed bf 59 bb
       -0.037610848 0.04230135 -0.052100517 -0.003322597
000070 ee f2 b7 3d 32 a8 a2 bc 8c 27 06 3d 09 94 9c 3d
       0.08981882 -0.019855592 0.03275256 0.07645423
000080 60 29 a5 3c 92 51 83 bd 5c d6 c6 bc 4f cf 17 bc
       0.02016133 -0.06412043 -0.024272136 -0.009265735
000090 f7 33 62 3d 65 2f 20 3d 21 ff 8f bd e8 72 e9 3c
       0.05522534 0.0391077 -0.07031084 0.028497174
0000a0 ac 1f 12 3c 7b 96 42 3c d7 b2 88 3d f3 90 73 3d
       0.008918684 0.011876698 0.06674736 0.059464406
0000b0 1d 43 8a 3d dd 6b af bc dc 04 42 bc fa a3 8c 3d
       0.06751082 -0.021413738 -0.011841979 0.068672135
0000c0 c5 7e 33 3d ef c5 6a 3d 87 d1 97 bd a1 fd 5b 3d
       0.04382207 0.05731767 -0.07413011 0.053708676
0000d0 95 f9 a9 bb ff 68 67 bd da 01 3a bd 8d 4d 2c bd
       -0.005187223 -0.056496616 -0.045411922 -0.042066146
0000e0 2d f3 88 3d 83 be a2 3c 02 d6 ec bc 0b be bc bc
       0.06687007 0.019866234 -0.02891064 -0.023039838
0000f0 9f 2b 81 3d c4 9a 57 3d ee b8 5c bd 28 92 24 bd
       0.06307148 0.05263783 -0.0538873 -0.040178448
000100 5a 13 0c 3d de a0 0b bd f9 c3 5c bd ab 71 33 bd
       0.034198143 -0.03408896 -0.05389783 -0.043809574
000110 15 39 73 3d 33 50 55 3d 21 c6 a9 3d 49 6e 05 3d
       0.05938061 0.052078437 0.08289743 0.03257588
000120 8b f5 8b bb 96 36 2b bc 18 e2 ec 3c ff f4 66 bc
       -0.0042712144 -0.010450026 0.028916404 -0.014096498
000130 b8 37 f3 3b 1c 33 63 bc f0 7c a6 bd 34 36 26 3d
       0.0074224137 -0.013867166 -0.08129299 0.040579036
000140 dd 6c 97 3d 11 57 37 bd c5 cf a6 bc 0a 2c 39 3d
       0.07393811 -0.044760767 -0.020362744 0.045208015
000150 0e 8d 33 3d 64 38 6c 3c 1e 7d 9f bc 93 7f d1 bc
       0.043835692 0.014417741 -0.01946884 -0.025573527
000160 96 62 4c 3c 91 88 4d bd 9b 95 6e bd ba 52 9f 3d
       0.012474677 -0.050179068 -0.058248144 0.07779451
000170 ce da 0b 3c 50 f2 2d 3d 20 ec 8d bd fd dc 08 3d
       0.008536054 0.042467415 -0.06929803 0.033413876
000180 64 4c 93 bd 9e 7e 1b 3c bb 70 e7 3c cf 10 4f 3d
       -0.07192305 0.009490637 0.028251996 0.05055314
000190 7e 69 80 3d d4 f5 1c 3d 13 e4 8d 3a 37 fa 59 bb
       0.06270121 0.038320377 0.0010825418 -0.0033260712
0001a0 45 5d 0d bd 26 2d 1d 3d 5f e8 b4 3d 3e 86 b9 bc
       -0.034512777 0.038373135 0.08833384 -0.02264702
0001b0 af 14 a4 3d 95 69 a7 3d fd 59 8a bd d2 85 a2 bd
       0.080117576 0.08174435 -0.06755445 -0.079356804
0001c0 8e 0a b5 3d 3c 35 38 3c ff ce 8b 3d ff 71 86 3c
       0.08839904 0.011243161 0.06826591 0.01641178
0001d0 8f 61 59 bb 63 e4 1b bc 69 72 c2 bc 40 85 60 bd
       -0.0033169722 -0.009514901 -0.023736196 -0.054814577
0001e0 33 a5 67 3d 3c 10 83 bd a2 84 cd 3c 3a ef 76 bc
       0.05655403 -0.06399581 0.025087658 -0.0150716845
0001f0 47 6c 4a 3d c5 13 87 bd a7 e5 e4 3a 30 91 47 bd
       0.049419668 -0.065955676 0.0017463461 -0.048722446
000200 40 6e 8d bd 4e 34 9b 3c 79 d4 2b 3d b6 cf 2c bd
       -0.06905794 0.01894584 0.041950677 -0.042190276
000210 64 c2 9c 3d ad ba 3c 3d 9d c9 54 bd da 10 b5 bd
       0.076542646 0.046076465 -0.051950086 -0.08841105
000220 10 5c 76 bd 0e 44 9e 3d 5c d3 f5 3c 6f f1 8a 3d
       -0.06014639 0.07727824 0.03000801 0.06784331
000230 66 2a 5e 3d 43 fc 98 bd ad 1f ba bc 2f 88 bf 3c
       0.054239653 -0.0746999 -0.022720182 0.023380367
000240 55 da 22 bc 89 5b 06 bd 6d 03 a4 3d ab 8e 23 bd
       -0.00993975 -0.03280214 0.08008466 -0.03993098
000250 0d 0d 4a bc 6f 68 81 bd 1c ea 00 3d c2 a5 7d bb
       -0.012332213 -0.06318747 0.031473264 -0.0038703536
000260 5d 73 da 3c 24 40 22 bc f3 ea 86 bd 3f 8c 01 bc
       0.026666338 -0.009902988 -0.06587782 -0.007906972
000270 c5 2f 8c bd 40 02 7e 3d 99 3b aa 3d cb 5f a1 3d
       -0.06845049 0.062013865 0.083121486 0.07879599
000280 c9 04 6b 3d f7 d5 9f 3d 07 70 6a bc 68 dc 9f 3c
       0.05737761 0.078044824 -0.014308936 0.019514278
000290 9b 06 3b bc 88 74 5a 3d a6 69 d9 bc ac f0 53 3d
       -0.011415149 0.05333379 -0.026539635 0.051743194
0002a0 86 dd a8 3c 86 5c bd bc 96 1c b1 3d f9 49 1b 3d
       0.020613443 -0.023115408 0.086480305 0.037912343
0002b0 9a ce 45 bd df 53 19 3d 3b a2 b2 bc 4f 8d f0 bc
       -0.048292734 0.0374335 -0.021805873 -0.029364256
0002c0 2e 39 5e 3d 78 9c a6 bd ad ec a2 3d 1d 87 82 3d
       0.05425375 -0.08135313 0.079552986 0.06373427
0002d0 49 f6 26 3d 90 ff 61 bc 89 ec 51 3d 0f b1 f5 3b
       0.04076222 -0.013793841 0.051250968 0.0074979137
0002e0 da ab 6d bd fa 51 59 3d 89 44 a8 3c 02 46 0a 3d
       -0.05802522 0.053056695 0.020540493 0.03375817
0002f0 39 a1 07 bc 19 5d ab bd ea 9c a6 bd 9c 0b 88 3d
       -0.008278185 -0.08367366 -0.08135398 0.06642839
000300 1b da 75 bd 08 6e 1c bd 13 15 cb bc 47 f2 30 bc
       -0.060022455 -0.03819087 -0.024790322 -0.010799951
000310 5f da c0 3c ec 16 85 bd 47 d7 a9 bd 37 67 8a bd
       0.023541627 -0.064985126 -0.08293014 -0.06757968
000320 c8 c0 01 bc 48 e7 d0 3c a5 53 ea bc 9b 70 db 3c
       -0.007919498 0.025500908 -0.028604338 0.026787093
000330 46 a9 85 bd 49 f1 52 bd ab c8 44 bd bf a0 b5 bd
       -0.06526427 -0.05149964 -0.048042934 -0.088685505
000340 04 ec 08 3d bc ed a7 3d 74 e9 51 bd 14 2c 9f 3d
       0.033428207 0.08199641 -0.05124803 0.07772079
000350 05 73 9f bd cf 8a b2 3d cd b0 b9 bc b0 ac ad bd
       -0.0778561 0.08717882 -0.022667313 -0.08480203
000360 d3 e9 ad bd 8e 97 58 3c 00 da dd 3c f1 2d 63 bc
       -0.08491864 0.013219727 0.02708149 -0.013865934
000370 8d 9b 40 bd 6a c7 44 bd 58 de 65 3d 3a 0b f7 bb
       -0.047023345 -0.04804174 0.056120247 -0.00753918
000380 71 f9 ac bd a6 1c 05 3d 11 d0 2e bc 83 95 a1 3d
       -0.08446015 0.032498024 -0.010669724 0.07889845
000390 3b 04 8d bd ce c0 b1 bd 02 ce 9c bc f0 26 ad 3d
       -0.068855725 -0.08679353 -0.0191412 0.08454692
0003a0 5f cc e8 3b f4 8b 2e 3d c1 f2 a9 3d e8 59 ae 3d
       0.007104441 0.04261394 0.08298255 0.08513242
0003b0 0d 17 47 bd f5 5e 62 3d 61 fc 33 bd df 88 3f 3d
       -0.048605967 0.05526634 -0.04394186 0.04676139
0003c0 ef 50 55 3d 47 3d 24 bd d2 af 23 3d bb da 3e 3d
       0.052079137 -0.0400975 0.039962597 0.046595316
0003d0 9d 52 1e 3d d4 a4 dd 3c e2 2c aa bd 7e 72 a8 bd
       0.038653005 0.027056135 -0.08309342 -0.08224963
0003e0 1d fc 58 bd 8f 34 15 bc 23 0b 6e 3d 5d 30 48 3d
       -0.05297481 -0.009106769 0.05811609 0.048874248
0003f0 e6 61 4b bd f7 91 0b bc 5d 9d fd 3c a6 6b 2f 3d
       -0.04965391 -0.008518687 0.030958826 0.04282727

actor.0.bias f4 [64]
000000 aa 14 7e bd 82 d1 90 bd 34 d1 1f 3d c6 e2 72 bc
       -0.062031426 -0.070712104 0.03901787 -0.014824575
000010 33 af 3a bb 3a ad 34 bd 7c ae 51 3d 6f 89 32 3d
       -0.0028485775 -0.044110514 0.051191792 0.0435881
000020 92 90 96 3d 49 91 60 3c 50 d5 8f bc b2 63 92 3b
       0.07351793 0.013706514 -0.01755777 0.004467451
000030 a8 52 90 bd 12 46 8e 3d e1 68 f6 3b 49 89 76 3c
       -0.070470154 0.069469586 0.0075198268 0.01504738
000040 f6 28 14 3d c7 5e 0a 3b 08 2e 58 bb 78 d3 87 bd
       0.036171876 0.002111362 -0.003298642 -0.06632131
000050 63 45 3d bd ce d3 20 bd b0 b6 84 3d b0 df a0 3d
       -0.04620875 -0.039264493 0.064801574 0.07855165
000060 63 d3 78 ba ef 8a 39 3d 42 da d0 bc b5 75 1e bd
       -0.00094919483 0.045298513 -0.025494698 -0.038686473
000070 23 62 c2 3a 65 76 b2 3b af 9e e8 3c f9 50 66 3d
       0.0014830272 0.0054462426 0.028395979 0.056229565
000080 74 b2 54 bd 0f d0 80 bc 94 b1 0a 3d 04 d0 a6 bd
       -0.051928 -0.01572421 0.033860758 -0.081451446
000090 a3 ea 8d 3c f2 75 5f bd 91 9b 75 bd 62 6f 01 bd
       0.017323798 -0.05455584 -0.059962813 -0.031600364
0000a0 c1 51 f8 bc a8 70 f6 3c 52 c5 7c 3d a6 6d ae bc
       -0.03031242 0.030083016 0.061711617 -0.021292519
0000b0 02 65 8b bd 02 f3 8a bd f9 ec ae bd 42 bb ce 3b
       -0.06806375 -0.06784631 -0.08541293 0.006308944
0000c0 a3 59 a0 3d 32 58 0d 3d 7b 2f 13 bc 51 fe bd bc
       0.07829597 0.034507938 -0.008983488 -0.023192557
0000d0 3e 5a 64 b9 d7 de 52 3d 7b d6 8f 3d 13 f9 9a bd
       -0.00021777392 0.051482048 0.07023331 -0.075670384
0000e0 04 71 3f 3d 08 35 5f bc 04 6b 13 bb 39 89 88 3d
       0.04673864 -0.0136234835 -0.0022494206 0.06666798
0000f0 a3 fe 20 3c dd a6 9f 3d 5b b4 aa 3d b7 0a 08 3d
       0.009826335 0.077954985 0.08335181 0.033213343

actor.2.weight f4 [64, 64]
000000 20 6e d3 bd 76 81 b4 bc ef a9 a3 3d 5a a4 f6 bd
       -0.10323739 -0.022034388 0.07991397 -0.12043066
000010 ac e2 6f bc 23 25 4e bc 80 45 5c 3d 77 f1 12 bd
       -0.014641445 -0.012582096 0.053777218 -0.03587481
000020 d2 93 8e 3d 45 13 f7 bd 52 27 a7 3d 75 dd 0a bd
       0.06961788 -0.12064222 0.08161797 -0.033902604
000030 76 46 d6 3d 67 9b d2 3d c1 a8 a6 bd 95 17 7f bc
       0.10462658 0.10283547 -0.08137656 -0.015569587
000040 f1 16 cb bd b9 0a b6 3d ab d8 b1 bc 81 d4 51 3c
       -0.09916485 0.08888764 -0.02170976 0.012807013
000050 1c 5f be bd 09 4a da bd 7a 01 44 3c 32 50 ba bd
       -0.092954844 -0.10658652 0.011963243 -0.09097327
000060 63 df 2a 3a ea 6b ec bc aa 90 ef bd 66 1f c7 bd
       0.00065182726 -0.028860051 -0.11697514 -0.09722786
000070 1a 8e ae 3d 1e f9 f5 3d 1e a7 ad 3d 9d b9 d3 3c
       0.085231975 0.12010406 0.08479141 0.025845343
000080 52 05 8a 3d 06 1f 46 3d 74 fb bf 3d 19 aa 7e bd
       0.06739296 0.04836943 0.09374133 -0.062173937
000090 27 c4 d4 bc 86 38 92 3d 0f ba 9c 3d eb b2 55 bc
       -0.025972439 0.07139687 0.07652675 -0.013043146
0000a0 fc a7 d7 bd c7 d7 81 3d 63 1d a7 3d 89 12 a8 3d
       -0.10530087 0.063399844 0.08159902 0.0820666
0000b0 0f ce d3 3d e8 e3 b4 bd cf 5f 12 3d 8c 7b c7 3c
       0.10342037 -0.08832532 0.0357359 0.024350904
0000c0 e5 a1 e4 bd 8a 45 93 bd 25 2b bf bd a5 b5 81 bc
       -0.111636914 -0.07190998 -0.09334401 -0.015833685
0000d0 bf 96 fb bc 7f 30 2c bd d1 4c 19 3d 8a db 38 bd
       -0.03071153 -0.042038437 0.037426773 -0.045131244
0000e0 66 7c 90 bc 35 c4 cf 3d 59 6e f4 3c f2 0b 8c bc
       -0.017637443 0.101448454 0.029837774 -0.01709554
0000f0 39 8f ce 3d 59 96 d0 bd a8 1e 41 ba 47 83 ed 3d
       0.10085911 -0.101849265 -0.0007366934 0.11597305
000100 f6 95 10 bd 85 01 d7 bd c8 71 22 bd 26 03 fb 3d
       -0.035299264 -0.10498337 -0.03965929 0.1225646
000110 c6 45 cb 3d c6 d9 00 3d ef 68 dc bc 56 16 9b bd
       0.099254176 0.031457685 -0.026905505 -0.075726196
000120 c0 c1 4b 3d 7b c7 70 bd 93 19 5d 3d 2d 96 c9 3d
       0.04974532 -0.05878399 0.053979468 0.09843097
000130 ae 72 c1 bd 53 50 cf 3c c0 fd a8 bb 43 f2 ee bd
       -0.094457015 0.025306856 -0.0051572025 -0.116673015
000140 8d 4a 8e 3d d7 e5 96 3d 83 9e fd bc 32 2c ef 3d
       0.06947813 0.07368057 -0.030959373 0.116783515
000150 1c f5 44 bc a3 12 8f 3b 11 de 8c 3c 9a 7d c7 3d
       -0.012021329 0.0043662353 0.017195733 0.097407535
000160 c1 78 f0 bd 24 b6 d0 3d 92 2b df bd 2b cd b3 bd
       -0.11741782 0.101909906 -0.10896982 -0.08779367
000170 ac 06 02 bc 91 6a a7 3c 38 c3 37 bd 27 e3 f3 3d
       -0.007936161 0.020436557 -0.04486391 0.1190856
000180 5b c3 c9 bd 55 bd df 3d c6 b3 3e bc 79 2c 32 bd
       -0.09851714 0.10924784 -0.011639541 -0.043499444
000190 06 2b aa 3d da 08 57 3c 95 93 b2 3d 50 26 f7 3d
       0.08308987 0.013124669 0.08719555 0.120678544
0001a0 ae c6 f5 bd d6 4e 52 3d 07 b8 dd 3d 61 4e ca 3d
       -0.12000786 0.051344715 0.10826116 0.09878231
0001b0 14 d1 47 3b e6 fa 57 3d fe 5a c7 bd ea ad 34 bd
       0.003048961 0.05272951 -0.09734152 -0.04411117
0001c0 0b 0f cf bd 29 6e 92 bd 27 6f 1b 3d 2b 15 ad bc
       -0.10110291 -0.07149918 0.0379478 -0.021128258
0001d0 35 cb b6 3d 03 96 d3 bc f8 c4 6e bd 2d 82 c9 bd
       0.089254774 -0.025828367 -0.058293313 -0.09839282
0001e0 2d 9a ac bd d0 39 d5 bc 57 30 26 bd 51 a1 54 3d
       -0.08427844 -0.026028544 -0.040573444 0.051911656
0001f0 dd 1a ee 3d 76 92 61 bd 3a 96 78 3d cc 1b 54 3d
       0.116262175 -0.055071317 0.060690142 0.05178432
000200 54 2e b4 bd 93 e8 81 bd a6 30 fd 3d 70 d5 c2 bd
       -0.08797899 -0.06343188 0.123627946 -0.09513366
000210 df 81 f9 bd 64 1b f3 3b 67 88 3a 3d f0 80 8d bd
       -0.12182974 0.0074190367 0.04554024 -0.069093585
000220 64 5f 92 bd 87 b5 96 3a 03 11 0e bb 34 93 be 3d
       -0.071471006 0.0011498191 -0.002167762 0.093054205
000230 08 f6 85 bd 28 c4 93 3d 1a ae 2a bd 04 17 4b bd
       -0.06541067 0.07215148 -0.041669942 -0.049582496
000240 db 60 eb bd 26 7d 12 3d df 63 54 bd 81 14 6d bc
       -0.11493083 0.035763882 -0.051853057 -0.014470221
000250 3e 4d 73 3d 43 42 01 be e4 ff 97 3d 7f e1 b9 3d
       0.059399836 -0.12622933 0.07421854 0.09076213
000260 7e eb 36 bc 13 e8 5d 3d bb e4 80 bd cd c1 d1 3c
       -0.011164544 0.0541764 -0.06293627 0.025605107
000270 f8 12 5a bd 88 a2 1a bd 3b 4c 7d 3d 6a 24 93 bd
       -0.053240746 -0.037752658 0.061840277 -0.0718468
000280 27 bd 7f 3d 55 ca c1 bd 19 39 b1 bd f6 3a d4 3b
       0.06243625 -0.0946242 -0.08653469 0.0064767553
000290 ca 12 ba 3d e9 f7 b5 3d 0b fe ea 3d f2 cd 08 3d
       0.09085615 0.08885176 0.11474236 0.03339953
0002a0 9c 5f 1d 3c 97 59 76 bc cb 49 78 bd 6d f7 cd bd
       0.009605315 -0.015036008 -0.06061725 -0.10056958
0002b0 35 40 ef bd 30 de db 3c 4e 3a 6a bd bf 59 69 3d
       -0.116821684 0.026839346 -0.05718451 0.056970354
0002c0 b3 35 b1 bd e9 b1 c5 3d 5f c3 8f 3c 31 48 05 3d
       -0.086528204 0.09653074 0.017549215 0.03253955
0002d0 0a cf b8 3d 36 ff 30 3d 02 b7 9a 3d 04 de fa bd
       0.090238646 0.043212138 0.07554437 -0.12249377
0002e0 06 ad c6 3c 18 59 b9 3c f6 15 bc 3d d5 c0 a4 3d
       0.024252426 0.022625491 0.09183876 0.08044592
0002f0 c0 87 98 bc e0 8e 79 3d 0f b9 25 bd 7f 0e 4a 3d
       -0.018619418 0.06092727 -0.04045969 0.04933023
000300 36 be 8a bd 94 c3 ed 39 37 9b ad 3c 7a 66 41 3c
       -0.06774561 0.0004534988 0.021192176 0.0118042175
000310 93 c7 97 3a 2e 4b 98 3d 35 e1 fe bd 67 44 15 bd
       0.0011579863 0.074362144 -0.124452986 -0.036442187
000320 85 fc f5 bd b3 fa 49 bd 31 e7 80 3d 59 67 ef bd
       -0.12011055 -0.04931135 0.06294096 -0.11689634
000330 fc 94 d7 3c 74 e9 82 3d 85 12 f3 3d 06 0c 8d bd
       0.026316158 0.06392184 0.11868767 -0.06887059
000340 7f 03 02 bd 4e 2f b2 bd 71 59 f5 3d a9 ff df 3a
       -0.031741615 -0.08700429 0.1197995 0.0017089742
000350 e1 44 81 3d e8 ec 1d 3d c2 e4 94 bd 69 d4 71 bd
       0.06311966 0.03855601 -0.072701946 -0.05904046
000360 fd 7e 32 bd fc 55 fb 3d ae 5f bc 3d 8e 12 e2 3d
       -0.043578137 0.122722596 0.09197937 0.11038695
000370 9c a1 e0 3d 18 79 d5 bc 55 4a 81 3c 0c 67 a7 bd
       0.109683245 -0.026058719 0.015782515 -0.081739515
000380 f7 e4 e7 3c ce e1 ae bd 23 64 df ba d5 da f2 bd
       0.028307421 -0.085391626 -0.0017043393 -0.11858145
000390 d9 85 e0 bd 44 db 7a bc af d4 87 3d fc 05 d7 bd
       -0.109630294 -0.015311066 0.06632363 -0.10499188
0003a0 00 2d 2b bd d5 07 d6 bd 45 f7 90 bd e2 24 72 3d
       -0.041790962 -0.104507126 -0.07078413 0.059117205
0003b0 ce 71 9a bd 18 d1 e8 bd 62 b5 d3 3d e4 6d c5 bd
       -0.07541238 -0.113680065 0.103373304 -0.096401006
0003c0 75 11 c2 bd 7f 58 72 bd f8 52 9d 3d 9d ee 8a bd
       -0.09475986 -0.059166428 0.07681841 -0.06783793
0003d0 9a 59 db bd e8 b9 56 bc 0d 08 e0 bd f3 37 8a 3d
       -0.107104495 -0.013105847 -0.109390356 0.06748953
0003e0 7d 3e aa 3c 2a d5 f2 bd 02 ac cc bb 82 46 73 bc
       0.02078175 -0.11857064 -0.006246091 -0.014848353
0003f0 8d d1 e7 3c bb 89 57 3d 15 e1 e0 bd 81 c9 d3 bd
       0.028298164 0.052621584 -0.10980431 -0.10341168

actor.2.bias f4 [64]
000000 cf e8 89 39 f1 c3 ee bd 78 c4 f4 bc 72 67 0a bc
       0.00026304132 -0.116584666 -0.02987884 -0.008447515
000010 a3 37 ed bd 6e 0c 4b 3d 81 20 9b 3d 29 fb fa bc
       -0.115828775 0.0495724 0.07574559 -0.03063734
000020 91 62 91 bd d7 0c 24 3d d4 c8 c5 3c ad 09 b7 3c
       -0.07098878 0.040051308 0.024143614 0.022343481
000030 de 4a 9d bc 6e bc 01 3d f7 ac cf 3d 39 f6 66 3d
       -0.019200739 0.03167384 0.10140412 0.05638716
000040 17 1a 48 bc 1e 3c a2 bd 8f 40 a7 bd 51 0c 4d 3d
       -0.012213252 -0.07921623 -0.081666104 0.050060574
000050 a8 9d 32 bd cf ec 2c 3d eb 01 da bd f7 09 02 bc
       -0.043607384 0.042218026 -0.10644897 -0.007936946
000060 b0 b0 38 3d ba 57 d2 3d 48 1b 27 3b 9c 0b e3 bd
       0.045090377 0.10270639 0.0025498439 -0.11086199
000070 63 a8 23 3d 3a ee 0a bc c8 e5 b8 3d 6c a1 4f 3d
       0.039955508 -0.008479649 0.09028202 0.050691053
000080 49 7c 9e bd ab bd 20 bd cb fc 98 3d 6f d7 87 bc
       -0.07738549 -0.03924338 0.074700914 -0.016582219
000090 b3 40 fd 3a 80 5e a5 bd ce 72 4b bc 40 f5 e3 3c
       0.001932165 -0.08074665 -0.012417508 0.027826905
0000a0 22 34 b9 3d ec 43 f2 3d 7b 11 83 bd 6a 20 8f bd
       0.09043147 0.11829361 -0.063998185 -0.06988604
0000b0 06 5d f0 3d 62 d9 11 3d 03 eb 1b 3d 91 e8 62 3c
       0.11736493 0.035607703 0.03806592 0.013849393
0000c0 7c fd 8d 3d 3b 25 9e bc b0 0a 48 3d 09 35 8a 3d
       0.06933114 -0.019304862 0.048838317 0.06748397
0000d0 92 55 56 3d 37 36 d4 3d db b4 50 3d d8 ac 64 bd
       0.0523277 0.10361903 0.050953727 -0.0558289
0000e0 cd b0 65 bd 0f e3 c2 3d 85 76 e7 3d c0 5c de 3d
       -0.056076813 0.09515964 0.11301903 0.108575344
0000f0 b7 76 c1 bd 69 a6 f7 bc 9b 1d dc bc 5e a0 9c bd
       -0.09446471 -0.030230718 -0.026869586 -0.07647775

actor.4.weight f4 [8, 64]
000000 e7 71 19 3d 66 b3 3d 3c c3 cb 85 bd ca 9a 3e bd
       0.03746214 0.011578416 -0.06533005 -0.046534337
000010 f6 10 17 bd e0 ab 59 3d dc a8 be bd be 52 6b bd
       -0.03688141 0.05314243 -0.09309551 -0.057451956
000020 45 cb 24 3d 81 1f fd 3c 96 f6 ec bd 78 57 ee 3d
       0.040232915 0.030898811 -0.1157047 0.11637777
000030 9c 1c b9 bd 0e 3d cb 3d d5 9f a8 bd e4 eb e3 bd
       -0.0903866 0.09923755 -0.082336105 -0.11128977
000040 5a 68 3e 3d 9c 64 c0 bd 74 03 41 3d a8 9c 23 bd
       0.046486236 -0.0939419 0.047122434 -0.03994432
000050 fc 74 f5 3c cb a6 f0 3d c5 b8 ee bd 0e ff 46 3d
       0.029963009 0.11750563 -0.11656336 0.048583083
000060 50 83 c2 3d 5e d2 b3 3c 41 7e c5 3d c5 a2 93 3d
       0.09497702 0.021950897 0.09643222 0.0720878
000070 80 53 5d 3d 23 1a d4 3d d1 c9 61 bd 70 76 96 bc
       0.05403471 0.10356548 -0.055124108 -0.018367022
000080 52 58 9f 3c 04 46 b8 3d 28 04 dc 3d 00 0a 56 bd
       0.019451294 0.089977294 0.1074298 -0.05225563
000090 39 d9 dc 3d c2 4e da 3d 60 80 38 bd 4e 9b ab bd
       0.107836194 0.10659553 -0.045044303 -0.083792314
0000a0 3b a5 f4 3d e6 4f 93 bd a4 50 2e bd 7d 67 9e 3d
       0.11945578 -0.07192974 -0.042557374 0.077345826
0000b0 7a 70 ca bd 00 5d c3 3d 66 80 36 bd 0e 9f 1e bd
       -0.098847345 0.09539223 -0.044556044 -0.038725905
0000c0 a4 2c f3 3d 4c 54 ca 3d 8b b0 f5 bc 58 8f 60 bc
       0.11873749 0.098793596 -0.029991409 -0.013706051
0000d0 9a 39 38 3d e1 fb 98 bd 4e 12 a0 bd 6f e5 07 bd
       0.044976808 -0.07469917 -0.07815991 -0.03317779
0000e0 25 2d 12 bd a2 84 db 3d 79 dd 80 3b 82 52 7d bd
       -0.035687584 0.10718657 0.0039326516 -0.061846264
0000f0 1b 1f ba bd e0 9a 5d 3d 98 b5 be bd b3 a8 b3 3d
       -0.09087964 0.05410278 -0.0931198 0.08772411
000100 14 e2 ba 3b 99 cd e9 3d 51 f4 08 bd 5d cf a3 bd
       0.00570322 0.11416168 -0.033436123 -0.07998536
000110 dc 88 a9 3d 25 17 fe 3d ca ce f8 bd 40 69 d2 3c
       0.08278057 0.12406758 -0.12148817 0.025684953
000120 ae 05 c3 3d 2f 98 ab 3d 51 06 8e 3d 7e 36 b8 bd
       0.09522568 0.08378636 0.069347985 -0.089947686
000130 79 4e ec bc bf 4d 50 bd 8e 1a b7 bd b7 04 eb 3c
       -0.028846012 -0.050855394 -0.08940612 0.028688772
000140 85 44 84 bd 44 ea dd bd 2d 5e a0 bd 9b bc 91 bd
       -0.064583816 -0.10835698 -0.078304626 -0.07116052
000150 b1 f6 0e 3d 02 52 91 bd 87 e4 f1 bd f6 fb fd 3d
       0.034903232 -0.0709572 -0.11811166 0.12401573
000160 a5 1b d0 3d fe 93 7e bd e5 d1 4c bc c1 b0 cb 3d
       0.10161523 -0.062152855 -0.012501215 0.099458225
000170 4d f0 55 3d 0d 91 c4 bd 24 00 fc 3d 19 d6 de 3b
       0.05223112 -0.09597979 0.12304714 0.006800425
000180 7d 74 c7 3d 59 2d 9a bc 0e 3f d1 3d 04 20 89 bd
       0.09739015 -0.018820452 0.10217105 -0.066955596
000190 5a ae e0 3d fb 3c 08 3c ec 98 cc bc 34 b0 78 3d
       0.10970755 0.00831532 -0.024975263 0.060714915
0001a0 b4 68 97 3d 51 8c f1 3c 54 cb fe 3b 8a 50 03 3c
       0.073930174 0.029485853 0.0077757034 0.0080148075
0001b0 da e6 8e 3d 62 ea 6f 3d f0 ac ed 3d b4 1e 7c 3b
       0.06977625 0.058573134 0.11605251 0.003847045
0001c0 ef 4c 90 3d 46 85 e8 3d 89 a7 b4 bd 11 5e a8 bd
       0.07045924 0.11353545 -0.08821017 -0.08221067
0001d0 90 99 82 3d a3 0a b6 bd 58 ae 6e bd f5 97 dd bd
       0.06376946 -0.088887475 -0.058271736 -0.10819999
0001e0 4c da a1 3d f6 8a bf 3d 12 1c 00 3c a0 2c c5 3c
       0.07902965 0.093526766 0.0078191925 0.02406913
0001f0 80 80 89 3b d5 6c 47 3d 57 1e 19 3d ad f7 65 3d
       0.0041962266 0.048687775 0.03738245 0.056144405
000200 18 e0 61 3d 96 26 3e 3d ec c4 f6 bd 9a c4 be bd
       0.055145353 0.046423517 -0.120492786 -0.093148425
000210 73 6d ee bd 5c 73 cd 3d 05 1a 98 3d ca af 34 3d
       -0.116419695 0.10031769 0.07426838 0.044112958
000220 96 86 52 3c 35 a5 a2 bd 89 4f 9b 3b 90 55 cd bd
       0.012849471 -0.07941667 0.004739706 -0.100260854
000230 54 39 e0 bd 84 3e 0b 3d b5 8f 03 3c 46 65 e0 3d
       -0.109484345 0.033995166 0.008029868 0.109568164
000240 4e b9 b1 3d 41 25 fc 3d c0 03 90 bd 37 29 b9 3b
       0.08677922 0.12311793 -0.07031965 0.005650665
000250 40 93 e4 3d b4 45 6b bd 7d 8e a4 3d 1e 2c ce 3d
       0.11160898 -0.05743952 0.0803499 0.100670084
000260 1c ff b0 3d ae 6f 78 3d 9a 95 1c 3d e0 0d b4 3c
       0.08642408 0.06065338 0.03822861 0.021979272
000270 b0 aa d0 bb 89 bc e7 bd b6 05 c5 bd bc ed e7 bd
       -0.006368004 -0.11315257 -0.0962023 -0.11324641
000280 0e 17 4b 3d d6 71 a0 3d f5 47 d1 bc 04 e5 3e bd
       0.049582534 0.078342125 -0.025547007 -0.046605125
000290 d2 e7 2c bb f5 b2 51 bd 56 18 39 3d a6 b4 67 bd
       -0.0026383293 -0.051196057 0.045189224 -0.056568764
0002a0 20 7a 9a bd 25 2f 11 bd 28 e9 da bd 43 c5 9c bd
       -0.07542825 -0.03544535 -0.10689002 -0.07654812
0002b0 b3 7f d1 bb b4 2d 4e bd d2 b1 f7 3d 48 8e 8c 3d
       -0.0063933968 -0.050336555 0.120944634 0.068630755
0002c0 12 cb 57 bd be 15 e7 bd 1c 13 4f 3d 96 48 45 3b
       -0.052683897 -0.11283444 0.050555333 0.003010308
0002d0 f3 1b 8d bd ab 79 82 3c 8e a0 cc bb d8 f6 fe bd
       -0.068900965 0.015927156 -0.0062447255 -0.124494255
0002e0 a3 47 cc 3d 76 f4 68 bc ff a1 b2 3d fb e5 fc 3d
       0.09974601 -0.01421844 0.087223046 0.12348553
0002f0 20 f2 e8 bd d3 9d 10 bd 7a 71 73 3c ff e9 7a 3d
       -0.11374307 -0.035306763 0.014858598 0.061258312
000300 3b f5 28 3c 4a 3b c3 bd fc ea a7 3d 8f c1 9d 3c
       0.010312374 -0.09532793 0.081991166 0.019257335
000310 8f a5 1b bd 07 35 8b 3d f4 fb a5 3d 80 37 84 3d
       -0.037999686 0.067972235 0.08104697 0.06455898
000320 1a 94 8d bc 61 4b b7 bd ee 21 85 bd c7 f8 4d bd
       -0.017282534 -0.08949924 -0.06500612 -0.05028608
000330 1c 3d dd bd a0 8a 78 3d 92 d5 b7 bd 22 f7 fb 3d
       -0.10802671 0.060679078 -0.08976282 0.12302996
000340 e8 5a aa 3d 16 6d 4a bd ac 62 a4 bd ca 1d dd 3d
       0.0831812 -0.04942044 -0.08026633 0.107966974
000350 35 c4 d0 bd f5 79 03 3c 29 ae 5f bc 9b 8e de 3d
       -0.101936735 0.008024682 -0.013652363 0.108670436
000360 55 49 a7 bc 0c c3 bc bc 03 61 eb 3c 0f ab aa 3d
       -0.02042071 -0.023042224 0.028732782 0.08333408
000370 b4 a3 d9 3d 42 48 00 3c 0b 23 28 bd ff 1c f0 bd
       0.10626927 0.007829728 -0.041049045 -0.117242806
000380 2e 59 9d bd 10 05 dd bc f1 71 fd bd 58 bb a4 bd
       -0.07683025 -0.026979953 -0.12375248 -0.080435455
000390 f0 df 86 bd f9 60 7b 3d bd 33 2a bd 8e 04 9e 3d
       -0.065856814 0.061371777 -0.041553248 0.077157125
0003a0 ac 61 ef 3d 8e 37 fb bd 7f 05 82 bd 8e e6 8e bd
       0.11688551 -0.122664556 -0.063487045 -0.069775686
0003b0 c8 c4 d6 3d 0a 8b 28 3d 8c 08 df 3d ab b7 a2 bd
       0.10486752 0.041148223 0.10890302 -0.07945188
0003c0 68 8d cf 3d d7 82 04 3b a5 b9 80 bd 9c 5b 7d 39
       0.10134393 0.0020219588 -0.06285409 0.00024162087
0003d0 d5 f7 67 bd df 65 8c 3d 37 35 74 bd 09 61 43 3c
       -0.056632835 0.06855368 -0.059621062 0.01192499
0003e0 17 04 86 bd 65 0a 8a 3c af 76 f9 3d 3f 6b a0 3d
       -0.06543749 0.01685066 0.1218084 0.078329556
0003f0 5f 41 fe 3d 79 23 b4 3c 87 3e 37 bd f5 fa f8 bc
       0.12414812 0.02198957 -0.044737365 -0.030393103

actor.4.bias f4 [8]
000000 4c 77 dd 3d ac f3 eb 3d c5 98 c7 bd 19 45 39 3c
       0.1081377 0.11521086 -0.09745935 0.011307978
000010 b2 3f 24 3d 66 55 04 bd ce 57 f2 bc a6 60 e9 3d
       0.040099807 -0.032308005 -0.029582884 0.11395387

critic.0.weight f4 [64, 128]
000000 d3 df b6 bd 17 1f 57 3d 29 f9 1b 3d 2a bd ae 3d
       -0.0892941 0.052519884 0.038079415 0.08532174
000010 72 6b ac 3c dc cb ef 3c dc 1e 3d 3c 8e 71 17 bd
       0.021047328 0.029272012 0.011543002 -0.03697353
000020 17 6a 6b 3b b8 4b c7 3c 02 ee 2e bd 69 a2 88 3d
       0.0035921389 0.024328098 -0.04270745 0.06671602
000030 00 a2 88 bd 6f 48 08 bc c6 15 52 bd e3 ee 82 bd
       -0.06671524 -0.008318051 -0.051290296 -0.0639322
000040 70 d1 de bb f0 35 0e 39 56 89 d9 3c 32 82 60 bc
       -0.0067998692 0.00013562269 0.026554745 -0.013702916
000050 10 92 54 3d 4d 4f 11 bc 25 93 2c bd d4 f7 11 bd
       0.05189711 -0.008869004 -0.042132515 -0.035636738
000060 8b 27 89 3d 7a 20 97 bd cc ef 6d bd 3a 7a 70 bb
       0.06696995 -0.07379241 -0.058090016 -0.0036693946
000070 46 cd 98 3d 00 82 2f 3d 9e 81 eb 3c 74 54 1f bd
       0.07461028 0.042848587 0.02874833 -0.0388989
000080 2e 81 d1 bc 26 71 96 bc d4 8a 97 bd 0e 8e f5 bc
       -0.025574293 -0.0183645 -0.07399526 -0.029974964
000090 d1 fd 28 3d 32 d8 25 bd 23 1d 89 bd 11 1b 8b bd
       0.041257683 -0.040489383 -0.066950105 -0.06792272
0000a0 bf 47 53 3c 99 d9 4f bd b2 16 43 3d 9a c5 57 3d
       0.012895524 -0.050744627 0.047629066 0.052678682
0000b0 79 b8 8e bd 03 32 bc b9 c8 28 3b 3d 98 65 15 bc
       -0.06968779 -0.00035895416 0.04569319 -0.00911846
0000c0 63 49 a4 bb bd 03 aa bd f7 b3 34 3d 9d 65 89 bd
       -0.005013631 -0.08301494 0.04411694 -0.06708834
0000d0 01 e4 77 bc 61 69 40 bd c4 71 a1 3d 9c b0 86 bd
       -0.015130044 -0.046975497 0.07883027 -0.06576654
0000e0 84 73 15 bd 16 d6 20 3d 8d 23 09 3d 05 92 ba 3c
       -0.036487117 0.03926667 0.03348117 0.022774706
0000f0 23 c3 1c 3d ce 01 9d bd 88 72 6b bc f9 9d 92 bd
       0.038272034 -0.0766636 -0.014370568 -0.07159037
000100 df 0b 9a 3d e2 07 75 bd cb d0 c6 3c 83 9e 96 3d
       0.075217955 -0.05982197 0.024269482 0.073544525
000110 a6 ef 3a bd 68 9e 17 bd b0 22 1f bd 89 1e a8 bd
       -0.045638703 -0.037016302 -0.03885144 -0.08208949
000120 37 5e 87 bd d0 b1 9c 3d 61 40 8d 3c b6 11 3d 3d
       -0.06609767 0.076511025 0.017242612 0.04615947
000130 74 88 5d 3d 2a ed 8a 3d a7 ca 3b 3d be fc 33 bd
       0.05408521 0.06783517 0.04584756 -0.043942206
000140 c3 c8 b3 bd ca 97 33 bd 03 ca 0f bd d3 08 a7 3d
       -0.08778527 -0.04384593 -0.035104763 0.0815598
000150 b6 44 91 bd 33 db f5 bc d8 47 03 bd ff ad de 3c
       -0.07093184 -0.030011749 -0.032050937 0.027182577
000160 b3 88 ac bd 3d 20 8b bd 99 45 32 3c af 06 b3 3c
       -0.08424511 -0.06793258 0.010880851 0.021853773
000170 1f 67 ed bc 1d b4 a4 bd 6f 4c 7d 3d 6e 03 c6 bd
       -0.028979836 -0.080421664 0.06184047 -0.09668623
000180 62 c5 9e 3d 5b f3 61 bd 63 ee bc 3d 8e ef 90 3d
       0.077524915 -0.055163722 0.09225156 0.070769414
000190 fd a0 39 bd 64 bb 4b 3d a4 a8 a1 bd e0 79 ab bc
       -0.045319546 0.049739257 -0.07893494 -0.020932138
0001a0 67 af cf bc c5 ba 10 3d 77 ea 0c bb f9 49 97 3d
       -0.025352193 0.035334367 -0.0021502057 0.07387156
0001b0 e7 c1 33 bd d7 b2 29 bd d0 4c 81 bd a2 6b 6a bd
       -0.04388609 -0.04143032 -0.06313479 -0.057231553
0001c0 58 68 5a bb c0 64 68 bd 16 13 17 3d 6b 53 18 bd
       -0.0033326354 -0.056736708 0.036883436 -0.03718893
0001d0 a8 09 5b 3b 51 5c 06 3d 88 ab 8c bd 1a d5 83 bd
       0.0033422504 0.032802884 -0.068686545 -0.0643713
0001e0 8f fd 27 bd c1 da c0 bc 95 58 86 3b ad 89 3a bc
       -0.041013297 -0.02354181 0.0040999153 -0.0113853635
0001f0 d2 7a 71 3b 17 fd 7e bd 86 9c bd bd 8d c4 2d 3c
       0.0036846888 -0.062253084 -0.0925837 0.010605943
000200 4c ea 61 bc 4c 88 11 bd f7 e8 12 3d 81 29 5f 3c
       -0.013788771 -0.035530373 0.035866704 0.013620735
000210 76 a9 c9 bd 82 49 87 3d c5 c6 b0 3d 91 b1 86 bd
       -0.09846775 0.066058174 0.08631662 -0.06576837
000220 e8 4e ee 3c af ba 9b 3d f8 f8 95 3d 68 48 83 bd
       0.02909036 0.076039664 0.07322878 -0.06410295
000230 dd 2b a0 3c 71 1b d0 bc 5d 05 5f bd 25 1a 51 3d
       0.019552166 -0.02540371 -0.054448474 0.051050324
000240 47 a4 9c 3b 7a f6 8b bd 6e 19 c3 3d e0 5d 0d bd
       0.0047803256 -0.06834121 0.09526335 -0.034513354
000250 74 4a 98 3d f0 f3 95 bd c8 f4 e5 3b 71 e9 b7 3d
       0.07436076 -0.07321918 0.0070177056 0.08980072
000260 71 a6 ae bd 6b c2 24 bc eb f8 90 bc ed 79 06 3c
       -0.0852784 -0.0100561185 -0.017696818 0.00820778
000270 0c 4e d2 bc 4d e7 45 bd 97 36 ec bc d9 1b 92 bd
       -0.025671981 -0.04831629 -0.028834624 -0.07134218
000280 b1 98 98 bd f7 06 89 3d 40 97 35 bd ca 6a 9a 3d
       -0.074509986 0.066907816 -0.044333696 0.075399
000290 b2 04 f0 3b 7e b3 1e 3d 14 27 c5 bd b8 e2 c0 bb
       0.0073247785 0.038745396 -0.09626594 -0.005886402
0002a0 58 e5 1c 3d a4 12 92 3d d7 2e a4 3d ac 4f 83 3d
       0.038304657 0.07132462 0.080167465 0.064116806
0002b0 20 16 1d bd 3a 7b 95 3d 9c 77 86 3d 86 66 3f bd
       -0.03835118 0.07298894 0.065657824 -0.046728633
0002c0 90 3e 9e bd b3 eb 11 3d 1f a4 f3 3c a8 94 5d 3d
       -0.077267766 0.03562517 0.029741345 0.054096848
0002d0 0e cf b1 bd d5 c7 51 bd 82 63 92 bb f8 66 01 3d
       -0.08682071 -0.051215965 -0.0044674287 0.03159234
0002e0 34 17 39 3d 25 7a 71 3c 58 e8 57 bd bd e6 f2 bc
       0.045188144 0.014738594 -0.052711815 -0.02965104
0002f0 84 1c 8f 3c 01 06 a7 bc 30 85 89 bd 10 f3 f4 3b
       0.017469652 -0.020388605 -0.067148566 0.0074752644
000300 85 e4 3d 3d 2a 97 84 3d d4 e2 4a bd 5d 27 b3 3c
       0.04636051 0.06474145 -0.049532726 0.021869356
000310 4e 4a 69 3d bd c9 43 3d b4 ef d8 3c e2 13 5c 3c
       0.056955628 0.047799814 0.026481487 0.013432475
000320 a4 7f 6c bd e2 1b 64 bb 4a 3b d6 3b b7 09 d8 bc
       -0.057738915 -0.0034806659 0.0065378295 -0.02637182
000330 6a 68 4c 3d 5c 70 d8 bc 4f 29 b1 3c 1f 37 83 bc
       0.049904265 -0.026420765 0.021626143 -0.016017495
000340 e9 ec 20 3d 37 6e 49 bd 1d 28 a4 bd 98 1f 73 3d
       0.039288435 -0.049177375 -0.080154635 0.059356302
000350 d1 fa 0a 3d 74 84 54 3d e5 33 91 3d 4c 53 fe 3b
       0.033930603 0.05188413 0.07089976 0.0077613946
000360 5f 74 81 3c d1 82 15 bd 67 68 19 3d ce 1e b9 bc
       0.01580256 -0.03650171 0.03745308 -0.022597697
000370 b5 64 e1 3c 27 ed a7 bd e1 65 ad bd 4c 09 a8 3d
       0.027513841 -0.0819953 -0.084666975 0.08204898
000380 d1 2e 63 3d c1 bb 23 3d a2 60 b1 bd 38 cc 0c bd
       0.05546457 0.039973978 -0.08661009 -0.034374446
000390 22 81 d7 3c 28 41 ad bd 33 5e 57 3d b1 92 9c bd
       0.026306693 -0.08459693 0.05258007 -0.07645167
0003a0 64 a5 6d 3c 5d 0b 8b bd 68 cb 80 bd 7d cf 9c bc
       0.014504764 -0.06789277 -0.06288797 -0.019141907
0003b0 7e 43 ea bb 64 8f f8 3c 1c 7d 3a bc ba 8e 69 bd
       -0.007149159 0.030341811 -0.011382367 -0.05702088
0003c0 17 19 9b 3d b7 5b 13 3c c4 d8 b4 bd f7 75 80 3d
       0.07573145 0.0089940345 -0.08830407 0.062725
0003d0 2f 73 a1 3c fd af b9 3d e8 26 5b bd 45 97 1e 3d
       0.019708244 0.0906677 -0.0535039 0.03871848
0003e0 a8 bc 9e 3d 4c ac b7 3d 27 f9 9d 3d cc c0 ae 3d
       0.07750827 0.0896841 0.07713538 0.08532867
0003f0 41 07 48 3c 5d e1 91 bb 92 80 b7 3d 0b ee b3 3d
       0.012208761 -0.004451914 0.0896007 0.087856375

critic.0.bias f4 [64]
000000 c5 14 b3 bd a2 44 88 bd 18 36 fe bc fc 6c ae bd
       -0.08744196 -0.06653716 -0.031031653 -0.08516881
000010 54 e3 0e 3a 1f 05 33 bd 58 14 9b bc e1 0e 51 bd
       0.00054507446 -0.043706056 -0.0189306 -0.05103958
000020 90 dd 43 3d 01 4b 5f bd 7f c2 aa 3b 71 4e d3 3c
       0.04781872 -0.05451489 0.005211174 0.02579424
000030 b1 43 9d bd 87 6f ad 3d bf e9 07 bd b4 fe 1d bd
       -0.07678927 0.08468538 -0.033181902 -0.038572982
000040 c7 f0 16 bc f7 5d c1 bc a4 04 99 ba 09 f2 5a 3d
       -0.009212679 -0.023604376 -0.0011674357 0.05345348
000050 a1 97 a0 bd 5e f2 77 3d 71 2f 92 bd 91 96 90 bd
       -0.07841421 0.060533874 -0.07137955 -0.07059968
000060 31 ad c7 bd 12 7e 93 bd 5c 2d fc 39 39 f5 31 bd
       -0.097498305 -0.072017804 0.0004809898 -0.043446753
000070 79 b4 1d bd f3 f5 6c bd d3 87 80 3c 84 7c c4 bc
       -0.03850219 -0.057851743 0.015689766 -0.023985155
000080 69 b7 8c bd 28 64 cf bc 29 cd a7 3d e8 b4 80 bd
       -0.0687092 -0.025316313 0.08193428 -0.06284505
000090 f5 5e 84 3d ec 70 de 3c cf e9 b7 3d e2 6b ce bc
       0.06463424 0.027153455 0.08980142 -0.025197927
0000a0 22 b5 c5 bc 51 f5 84 3d 89 fd 33 3d a3 70 91 3c
       -0.024134222 0.06492103 0.04394296 0.017753905
0000b0 c9 7f c5 bd 99 5d 87 bd 13 fd d3 3c 76 fe 27 bc
       -0.09643514 -0.06609649 0.025877511 -0.010253539
0000c0 fc c6 99 3d de 8e c7 3c 67 08 70 3d 62 36 83 3d
       0.075086564 0.024360117 0.058601763 0.06406857
0000d0 9e 83 8c bd cc 6f 48 bd 63 a9 55 bd ce 05 41 3d
       -0.068610415 -0.048934743 -0.052163493 0.047124676
0000e0 f9 25 0f bd 6a 1c ba 3c f7 b1 b2 3d 30 b5 46 bd
       -0.034948323 0.022718627 0.0872535 -0.048512638
0000f0 c9 94 d0 3c 4c 01 03 3d 78 c0 82 3d d3 f3 05 bc
       0.025461571 0.03198366 0.06384367 -0.008175808

critic.2.weight f4 [64, 64]
000000 93 f7 c5 bc e8 20 b2 bd c3 e7 9c 3c b8 39 9c bd
       -0.024165904 -0.086976826 0.019153481 -0.076281965
000010 0f d6 8b bd 4c 9a 33 3d 40 a6 0c bd f2 37 b0 bd
       -0.06827938 0.04384832 -0.034338236 -0.08604421
000020 87 96 c0 3d 8e e4 71 bd fd d6 87 bd 39 c5 86 3d
       0.09403711 -0.059055857 -0.06632803 0.06580586
000030 99 d7 d1 3d c8 50 d0 bd dc 95 10 bd 5e 0d 9f ba
       0.102462 -0.10171658 -0.035299167 -0.0012134721
000040 9f b3 ac bc c9 58 8c bc 26 ff 51 bd 07 d6 58 3d
       -0.021081744 -0.01713218 -0.05126872 0.052938487
000050 5e df d1 bd 74 7b fd 3c c5 c8 58 3c 15 5f 38 bd
       -0.10247682 0.030942656 0.013231461 -0.045012552
000060 57 3b 15 3d 58 78 c7 bd b3 07 db 3d 5d 88 e2 bd
       0.036433544 -0.097397506 0.10694828 -0.110611655
000070 c5 27 1d bc 5e 94 b0 bd f4 97 0c bc 46 8c a2 bd
       -0.009592001 -0.08622049 -0.00858115 -0.07936911
000080 9e 31 19 bd 8b 91 24 3c ba 4d 08 be 2b 4e b6 3d
       -0.037400834 0.010044466 -0.133109 0.08901628
000090 dc f1 c0 3d be e4 a5 3d f5 a8 62 3d 87 55 b8 3b
       0.09421131 0.0810027 0.05533691 0.00562543
0000a0 f5 d7 37 3c 8a 12 fb bd d7 e4 79 bd 35 01 df 3c
       0.011220922 -0.122593954 -0.061009254 0.027222255
0000b0 7b 90 5a bd 24 4c 97 bc fc 58 86 bd 87 e8 91 3d
       -0.053360444 -0.018468924 -0.06559941 0.07124429
0000c0 d2 63 8b bc bd 60 c8 3d ae 1b a1 bd 30 c7 36 3d
       -0.017015371 0.09784076 -0.078666076 0.044623554
0000d0 28 13 a6 bd a0 a8 cc 3d 92 ec 68 bd 4c 4a c6 3c
       -0.081091225 0.099931 -0.056866236 0.02420535
0000e0 58 7a 09 be 4f 76 cb bd bd 25 23 bc 08 ea 22 bd
       -0.13425577 -0.09934675 -0.009957728 -0.03977397
0000f0 a5 32 0c 3d 97 13 e9 3d 4c ee ee bd cf 30 99 3d
       0.034227986 0.113806896 -0.11666545 0.074800126
000100 e1 ee 8d 3c d0 da 9a 3b 55 68 90 bc 20 30 1b bd
       0.01732582 0.0047257915 -0.017627874 -0.037887692
000110 a4 aa 90 bc b2 9c f1 bc 14 33 d4 bd c0 49 d5 bd
       -0.017659493 -0.029493663 -0.10361305 -0.10414457
000120 5b 0c c3 bb d7 e4 52 3d 4e f7 f9 bd 5c 19 ba 3d
       -0.0059524006 0.05148777 -0.12205373 0.09086868
000130 d4 dd 3f bd f0 29 e6 bd c1 82 41 3d 86 61 09 3d
       -0.04684241 -0.11238468 0.047243837 0.03354027
000140 9a dc b7 bd ad 03 24 3c 44 c8 8b bd 64 61 a0 bc
       -0.08977623 0.010010642 -0.06825307 -0.01957769
000150 4a 24 4e 3c 5e f4 b4 3c b0 d5 30 bd 71 bf 08 be
       0.012581894 0.02208918 -0.04317254 -0.13354279
000160 9d 65 7b 3d 90 c4 b1 3c 95 e3 9f 3d b5 d3 35 bd
       0.061376203 0.021700174 0.0780708 -0.044391353
000170 49 0e 19 3d 5c 7c a3 bd 43 94 6c 3d 36 ab 9d 3d
       0.03736714 -0.07982704 0.05775858 0.076986715
000180 87 0a 54 3b db 7c fc bc 32 a6 9b bd 90 35 88 3d
       0.0032354908 -0.030821254 -0.076000586 0.06650841
000190 97 3d 36 bc ac c2 38 3c 96 76 8b 3c d5 0e f5 3c
       -0.011123083 0.011276882 0.01702432 0.029914299
0001a0 6a 6f 8e bc 26 21 e7 3d 52 04 4a bb 1c 94 a3 3d
       -0.01738711 0.112856194 -0.003082533 0.07987234
0001b0 10 4f d7 3c ac 41 16 3d 4f db be bd e4 da c2 3d
       0.026282817 0.036683723 -0.093191735 0.09514406
0001c0 83 ca d3 bb 63 da dc bc 43 d8 55 3d 19 b1 da 3d
       -0.0064633503 -0.026959604 0.052208196 0.1067831
0001d0 7b da e9 bd b1 1e d2 bd 74 8f e9 bd d8 6c 01 bd
       -0.11418625 -0.1025976 -0.11404315 -0.031597942
0001e0 39 9d d4 bd 09 70 e6 bd e6 39 cf 3c 6f 3e 19 bd
       -0.1038155 -0.11251838 0.025296163 -0.037413057
0001f0 93 44 f3 bd 15 46 b8 bd 65 07 09 be 25 9c 82 bd
       -0.11878314 -0.08997742 -0.13381727 -0.063774385
000200 1d 5d 07 3e 34 18 f6 bc 88 70 72 3b bf ea e8 3d
       0.13219114 -0.030040838 0.0036993343 0.11372899
000210 43 0d 18 3d 75 45 2a bd da 1a 70 bd d5 ff 0b 3d
       0.037122022 -0.041570146 -0.058619358 0.034179527
000220 b4 64 1e 3c 65 e6 28 bd 32 50 ae bd e5 12 a3 3d
       0.009667564 -0.041235346 -0.0851139 0.07962588
000230 34 c9 b9 3c e2 4c ad 3d 17 3a 09 bc 9d 40 bc 3d
       0.022678949 0.0846193 -0.008375666 0.091920115
000240 13 a2 be 3d eb 20 9c 3a 22 b2 07 be c7 26 5f bd
       0.09308257 0.0011911666 -0.13251546 -0.05448034
000250 08 bb 67 3d bb d8 a3 bd d3 60 9a bd 7d 0e 54 3c
       0.05657485 -0.080003224 -0.07537999 0.012942907
000260 7f 47 d3 bd 93 e8 bb 3d 60 3e b4 3d d2 71 70 bc
       -0.10316371 0.091752194 0.088009596 -0.014675574
000270 47 05 94 3d 45 4f c4 3c 8e 23 95 3d 23 1e ad bd
       0.07227569 0.02396358 0.07282172 -0.08453014
000280 d0 82 1a 3d d5 94 00 be a4 fb 92 3d 78 cb 09 3e
       0.03772241 -0.12556775 0.07176903 0.13456523
000290 e5 af 83 3d b2 78 19 bd b0 fe 4b 3b c6 55 2a 3d
       0.064300336 -0.03746862 0.0031127147 0.041585706
0002a0 87 79 51 3d f5 15 96 bd 30 9d 70 3d 17 9a ad 3c
       0.051141288 -0.07328407 0.058743656 0.02119164
0002b0 af c0 82 bd 44 4b c6 bd 97 aa 79 3d f3 52 f7 bd
       -0.06384408 -0.096823245 0.060953703 -0.12076368
0002c0 a9 f9 e8 3d 03 08 c7 bc f8 de d1 3d 2c 9d 4f 3d
       0.11375744 -0.024295812 0.10247606 0.050687
0002d0 1c 55 47 3c ad 96 22 bd df e7 f5 3d 02 39 91 bd
       0.012166288 -0.039694477 0.120071165 -0.070909515
0002e0 d1 3a b4 bd 22 99 28 bd 25 ad a6 3c 92 69 5d bd
       -0.08800281 -0.041161664 0.020346234 -0.054055758
0002f0 f4 d9 b8 bc 15 f9 b8 bc ce ec 03 3d 7b 87 80 3d
       -0.022564866 -0.022579709 0.032208256 0.06275841
000300 cb b6 d0 3d 9f 7b 45 3d 59 dc a6 3d 95 ee b1 bd
       0.10191115 0.048213597 0.08147497 -0.08688084
000310 64 e1 42 bc 38 71 37 bc 8f 32 3a 3d 96 79 85 3d
       -0.011894558 -0.011196427 0.045458373 0.06517331
000320 20 99 aa bd 2b b9 d8 bc 57 01 d8 3d af 65 0b 3d
       -0.083299875 -0.026455482 0.105471306 0.03403252
000330 b0 d3 84 bd b2 07 cf bb 20 f0 ce bd 03 37 a8 bd
       -0.06485689 -0.006318056 -0.10104394 -0.08213618
000340 d6 d2 48 bc 14 09 a8 bc 50 8b 1b bb f5 c1 e6 3d
       -0.012257298 -0.020512141 -0.002373416 0.11267463
000350 f0 30 84 bd ad de e1 bc 85 78 8a 3c d7 4f d8 bd
       -0.064546466 -0.027572 0.016903171 -0.10562103
000360 78 aa fe bd 2e 26 c9 3d e1 83 05 3e 1e ea da 3c
       -0.12434858 0.09821735 0.13038589 0.026722964
000370 60 e0 40 3d 50 55 9e 3c 86 d2 c9 3c 6a c8 03 3e
       0.04708898 0.01932779 0.024636518 0.1286942
000380 7b 2e a9 3d 4b b2 5e 3d 9f 1c 81 bd f5 08 dc bd
       0.082608186 0.054369252 -0.06304287 -0.10743896
000390 8b 8f ef 3c 9f f6 a0 bc a3 a8 a7 3d 4c 61 ed 3d
       0.029243251 -0.019648848 0.08186462 0.115908235
0003a0 5d 7b b9 bd 24 9f ba 3d 9e b7 ae 3c d0 08 6a 3c
       -0.09056733 0.09112385 0.02132779 0.014284328
0003b0 fe a0 57 bd cf 78 7f bd 29 4f f6 3d 78 7e ab bc
       -0.05264377 -0.06237107 0.12026817 -0.020934328
0003c0 9d d0 06 3d 12 eb 88 3d be 3d aa 3d 40 47 81 3d
       0.032913793 0.06685461 0.08312558 0.06312418
0003d0 50 18 be bd e8 ca 24 bd 3d 93 0c bc c7 c5 8e bd
       -0.09281981 -0.04023257 -0.008580026 -0.06971317
0003e0 b0 4e 1e 3d ef 7f bb bd d6 7d 8f 3d 4b 86 59 3d
       0.03864926 -0.09155261 0.07006423 0.053106587
0003f0 40 6b 79 bd d1 46 b2 bd d6 28 d2 bd a9 ce be 3d
       -0.060893297 -0.087049134 -0.10261695 0.09316761

critic.2.bias f4 [64]
000000 7b 3d 2f bc 57 6c cf bd c4 e0 04 be c6 76 3c bb
       -0.01069581 -0.10128086 -0.12976366 -0.0028757318
000010 83 b4 09 3d 17 4c b7 bd d9 9d 1a 3d 26 85 bb bd
       0.033619415 -0.0895006 0.03774819 -0.091562554
000020 c8 c3 d6 3d 2e 28 4e bd 02 6a 8e 3d a5 9f b9 bd
       0.10486561 -0.050331287 0.06953813 -0.09063653
000030 d0 53 7d bc 3e 47 dc 3c 99 db 8a 3d 1a 1a 4f bd
       -0.015461877 0.02688944 0.06780166 -0.050562
000040 19 01 bc 3c fe 5c 8a 3b 73 08 4c 3a 1f 9b 08 3e
       0.022949742 0.0042225113 0.00077832415 0.13340424
000050 b8 ac d4 3d e4 65 d2 3d 29 33 87 bd 2a e0 f1 3d
       0.10384506 0.1027334 -0.06601555 0.11810334
000060 6d 8c 4c bc ce 86 a9 3d cf 69 6d 3d ce c4 f2 bd
       -0.012484652 0.08277665 0.057962235 -0.11853944
000070 f7 fb a2 3d fe e3 90 3d 99 05 60 3c b9 a5 8d 3d
       0.07958215 0.07074736 0.01367321 0.06916375
000080 02 7d 99 bd 45 92 99 bc 54 07 c1 3d 28 0a 23 bd
       -0.074945465 -0.018746505 0.09425226 -0.039804608
000090 ab af d0 3d 2a cf 0d 3d 8e a1 9c 3b 98 da 8e bd
       0.10189756 0.034621395 0.004780001 -0.06975287
0000a0 d2 df d2 bd 4e 18 83 3d 82 8c aa bb 66 d2 93 bc
       -0.102965966 0.0640112 -0.005204738 -0.018044662
0000b0 fa 01 5c 3d bc 5d 35 bd 88 0f c4 bd ee 49 92 bd
       0.053712822 -0.044278845 -0.09573275 -0.07143007
0000c0 a5 22 88 bd 3e ea 91 3d e3 77 f6 3d 27 b9 f4 3d
       -0.06647233 0.07124756 0.12034585 0.119493775
0000d0 ed ae e3 3d fd 7a f9 bd ca 1f 00 3e 9a 3c 43 bc
       0.11117349 -0.12181661 0.12512127 -0.011916304
0000e0 b6 80 cf bc 61 40 ce 3d 21 82 90 bd de a7 e9 bc
       -0.025329929 0.10070873 -0.0705607 -0.028522428
0000f0 4f 51 db bd 9b e1 39 bd c9 9b bb 3d 66 62 9a 3d
       -0.10708868 -0.04538117 0.09160573 0.07538299

critic.4.weight f4 [1, 64]
000000 96 73 80 3c 80 df 78 3d df 1a 00 3e 81 e7 ae bd
       0.015680116 0.06076002 0.1251025 -0.085402496
000010 1b 87 f4 3c be 14 66 bd 30 eb e0 bd a7 34 e8 bc
       0.02984958 -0.056172125 -0.109823585 -0.02834542
000020 1a 02 00 bd 24 1c cd 3d 66 02 f5 3c 9e e5 cd 3c
       -0.031252004 0.10015133 0.02990837 0.025133904
000030 f3 2d b6 bd 1e bb f9 bd 49 36 de 3d 58 44 80 38
       -0.08895483 -0.12193893 0.10850198 6.116246e-05
000040 bd d1 74 bb e0 32 ec bc 57 28 67 bc 23 b7 9f bd
       -0.003735646 -0.028832853 -0.014108739 -0.077986024
000050 c6 4c e9 3c ed a1 9f 3d d8 8f 41 bd eb 1f 5b bc
       0.028478991 0.07794557 -0.04725632 -0.013374309
000060 a1 c2 50 3d a2 6a bb 3d 87 40 e1 bc 32 ce 0e 3c
       0.050966863 0.09151198 -0.02749659 0.008716153
000070 c7 11 6c bd 6f 71 a7 3d 36 79 b2 bd c1 f7 aa bd
       -0.05763414 0.081759326 -0.087145254 -0.083480366
000080 93 e6 98 bd a9 f7 82 3d a6 f1 9f bd 2a 21 94 3d
       -0.074658535 0.06394894 -0.07809763 0.07232888
000090 f6 b9 3a 3d 44 57 5e 3d 60 cf 99 3d bc a2 92 3d
       0.045587502 0.05428244 0.07510257 0.07159945
0000a0 e5 aa 15 3d 89 24 de bc d0 89 5f bd 28 1f ad bd
       0.03653993 -0.02711703 -0.054574788 -0.08453208
0000b0 6f 19 e0 bd 21 29 15 bd d7 18 df 3d 10 1e 73 bb
       -0.10942351 -0.036416177 0.1089341 -0.0037096776
0000c0 69 43 6c bc 23 83 36 bc 5e 33 75 bd ff 83 c8 bd
       -0.014420369 -0.011139664 -0.05986344 -0.09790801
0000d0 05 71 f9 bd 90 3d 88 3d b7 13 00 be fd 34 e9 3d
       -0.1217976 0.06652367 -0.1250752 0.1138706
0000e0 4d ef 99 3c 52 c1 61 bd ed 63 10 3c c1 fd 25 3d
       0.018790865 -0.055116005 0.008812887 0.0405252
0000f0 0c 11 ea 3d 59 40 55 bd b5 64 87 bc ba b7 4f bd
       0.11429033 -0.05206332 -0.016527513 -0.050712325
